program(1.3)
[buildInfo = dict<string, string>({{"coremlc-component-MIL", "3520.4.1"}, {"coremlc-version", "3520.5.1"}, {"coremltools-component-torch", "2.7.0"}, {"coremltools-source-dialect", "TorchScript"}, {"coremltools-version", "9.0"}})]
{
    func main<ios18>(tensor<fp16, [661059]> audio) {
            tensor<int32, [3]> var_24 = const()[name = string("op_24"), val = tensor<int32, [3]>([1, 1, 661059])];
            tensor<fp16, [1, 1, 661059]> input_3_cast_fp16 = reshape(shape = var_24, x = audio)[name = string("input_3_cast_fp16")];
            tensor<int32, [6]> input_5_pad_0 = const()[name = string("input_5_pad_0"), val = tensor<int32, [6]>([0, 0, 0, 0, 512, 512])];
            string input_5_mode_0 = const()[name = string("input_5_mode_0"), val = string("reflect")];
            fp16 const_3_to_fp16 = const()[name = string("const_3_to_fp16"), val = fp16(0x0p+0)];
            tensor<fp16, [1, 1, 662083]> input_5_cast_fp16 = pad(constant_val = const_3_to_fp16, mode = input_5_mode_0, pad = input_5_pad_0, x = input_3_cast_fp16)[name = string("input_5_cast_fp16")];
            tensor<int32, [2]> var_30 = const()[name = string("op_30"), val = tensor<int32, [2]>([1, 662083])];
            tensor<fp16, [1, 662083]> input_7_cast_fp16 = reshape(shape = var_30, x = input_5_cast_fp16)[name = string("input_7_cast_fp16")];
            tensor<int32, [1]> expand_dims_2 = const()[name = string("expand_dims_2"), val = tensor<int32, [1]>([441])];
            tensor<int32, [1]> expand_dims_3_axes_0 = const()[name = string("expand_dims_3_axes_0"), val = tensor<int32, [1]>([1])];
            tensor<fp16, [1, 1, 662083]> expand_dims_3_cast_fp16 = expand_dims(axes = expand_dims_3_axes_0, x = input_7_cast_fp16)[name = string("expand_dims_3_cast_fp16")];
            string conv_0_pad_type_0 = const()[name = string("conv_0_pad_type_0"), val = string("valid")];
            tensor<int32, [2]> conv_0_pad_0 = const()[name = string("conv_0_pad_0"), val = tensor<int32, [2]>([0, 0])];
            tensor<int32, [1]> conv_0_dilations_0 = const()[name = string("conv_0_dilations_0"), val = tensor<int32, [1]>([1])];
            int32 conv_0_groups_0 = const()[name = string("conv_0_groups_0"), val = int32(1)];
            tensor<fp16, [513, 1, 1024]> _inversed_real_div_1_weight_0_to_fp16 = const()[name = string("_inversed_real_div_1_weight_0_to_fp16"), val = tensor<fp16, [513, 1, 1024]>(BLOBFILE(path = string("@model_path/weights/weight.bin"), offset = uint64(64)))];
            tensor<fp16, [513]> _inversed_real_div_1_bias_0_to_fp16 = const()[name = string("_inversed_real_div_1_bias_0_to_fp16"), val = tensor<fp16, [513]>(BLOBFILE(path = string("@model_path/weights/weight.bin"), offset = uint64(1050752)))];
            tensor<fp16, [1, 513, 1500]> _inversed_real_div_1_cast_fp16 = conv(bias = _inversed_real_div_1_bias_0_to_fp16, dilations = conv_0_dilations_0, groups = conv_0_groups_0, pad = conv_0_pad_0, pad_type = conv_0_pad_type_0, strides = expand_dims_2, weight = _inversed_real_div_1_weight_0_to_fp16, x = expand_dims_3_cast_fp16)[name = string("_inversed_real_div_1_cast_fp16")];
            string conv_1_pad_type_0 = const()[name = string("conv_1_pad_type_0"), val = string("valid")];
            tensor<int32, [2]> conv_1_pad_0 = const()[name = string("conv_1_pad_0"), val = tensor<int32, [2]>([0, 0])];
            tensor<int32, [1]> conv_1_dilations_0 = const()[name = string("conv_1_dilations_0"), val = tensor<int32, [1]>([1])];
            int32 conv_1_groups_0 = const()[name = string("conv_1_groups_0"), val = int32(1)];
            tensor<fp16, [513, 1, 1024]> _inversed_real_div_2_weight_0_to_fp16 = const()[name = string("_inversed_real_div_2_weight_0_to_fp16"), val = tensor<fp16, [513, 1, 1024]>(BLOBFILE(path = string("@model_path/weights/weight.bin"), offset = uint64(1051904)))];
            tensor<fp16, [1, 513, 1500]> _inversed_real_div_2_cast_fp16 = conv(bias = _inversed_real_div_1_bias_0_to_fp16, dilations = conv_1_dilations_0, groups = conv_1_groups_0, pad = conv_1_pad_0, pad_type = conv_1_pad_type_0, strides = expand_dims_2, weight = _inversed_real_div_2_weight_0_to_fp16, x = expand_dims_3_cast_fp16)[name = string("_inversed_real_div_2_cast_fp16")];
            tensor<int32, [2]> var_35 = const()[name = string("op_35"), val = tensor<int32, [2]>([513, 1500])];
            tensor<fp16, [513, 1500]> spec_f_cast_fp16 = reshape(shape = var_35, x = _inversed_real_div_1_cast_fp16)[name = string("spec_f_cast_fp16")];
            tensor<fp16, [513, 1500]> spec_f_1_cast_fp16 = reshape(shape = var_35, x = _inversed_real_div_2_cast_fp16)[name = string("spec_f_1_cast_fp16")];
            tensor<fp16, [513, 1500]> square_0_cast_fp16 = square(x = spec_f_cast_fp16)[name = string("square_0_cast_fp16")];
            tensor<fp16, [513, 1500]> square_1_cast_fp16 = square(x = spec_f_1_cast_fp16)[name = string("square_1_cast_fp16")];
            tensor<fp16, [513, 1500]> add_1_cast_fp16 = add(x = square_0_cast_fp16, y = square_1_cast_fp16)[name = string("add_1_cast_fp16")];
            tensor<fp16, [513, 1500]> sqrt_1_cast_fp16 = sqrt(x = add_1_cast_fp16)[name = string("sqrt_1_cast_fp16")];
            tensor<int32, [2]> var_39_perm_0 = const()[name = string("op_39_perm_0"), val = tensor<int32, [2]>([-1, -2])];
            tensor<fp16, [128, 513]> transpose_0_to_fp16 = const()[name = string("transpose_0_to_fp16"), val = tensor<fp16, [128, 513]>(BLOBFILE(path = string("@model_path/weights/weight.bin"), offset = uint64(2102592)))];
            tensor<fp16, [128]> var_40_bias_0_to_fp16 = const()[name = string("op_40_bias_0_to_fp16"), val = tensor<fp16, [128]>(BLOBFILE(path = string("@model_path/weights/weight.bin"), offset = uint64(2233984)))];
            tensor<fp16, [1500, 513]> var_39_cast_fp16 = transpose(perm = var_39_perm_0, x = sqrt_1_cast_fp16)[name = string("transpose_96")];
            tensor<fp16, [1500, 128]> var_40_cast_fp16 = linear(bias = var_40_bias_0_to_fp16, weight = transpose_0_to_fp16, x = var_39_cast_fp16)[name = string("op_40_cast_fp16")];
            fp16 var_43_promoted_to_fp16 = const()[name = string("op_43_promoted_to_fp16"), val = fp16(0x1.f4p+9)];
            tensor<fp16, [1500, 128]> var_44_cast_fp16 = mul(x = var_40_cast_fp16, y = var_43_promoted_to_fp16)[name = string("op_44_cast_fp16")];
            fp32 var_45_epsilon_0 = const()[name = string("op_45_epsilon_0"), val = fp32(0x1p+0)];
            tensor<fp16, [1500, 128]> var_45_cast_fp16 = log(epsilon = var_45_epsilon_0, x = var_44_cast_fp16)[name = string("op_45_cast_fp16")];
            tensor<int32, [1]> x_1_axes_0 = const()[name = string("x_1_axes_0"), val = tensor<int32, [1]>([0])];
            tensor<fp16, [1, 1500, 128]> x_1_cast_fp16 = expand_dims(axes = x_1_axes_0, x = var_45_cast_fp16)[name = string("x_1_cast_fp16")];
            bool var_55 = const()[name = string("op_55"), val = bool(true)];
            tensor<int32, [3]> var_84_perm_0 = const()[name = string("op_84_perm_0"), val = tensor<int32, [3]>([0, 2, 1])];
            tensor<fp16, [128]> model_frontend_stem_bn1d_running_mean_to_fp16 = const()[name = string("model_frontend_stem_bn1d_running_mean_to_fp16"), val = tensor<fp16, [128]>(BLOBFILE(path = string("@model_path/weights/weight.bin"), offset = uint64(2234304)))];
            tensor<fp16, [128]> model_frontend_stem_bn1d_running_var_to_fp16 = const()[name = string("model_frontend_stem_bn1d_running_var_to_fp16"), val = tensor<fp16, [128]>(BLOBFILE(path = string("@model_path/weights/weight.bin"), offset = uint64(2234624)))];
            tensor<fp16, [128]> model_frontend_stem_bn1d_weight_to_fp16 = const()[name = string("model_frontend_stem_bn1d_weight_to_fp16"), val = tensor<fp16, [128]>(BLOBFILE(path = string("@model_path/weights/weight.bin"), offset = uint64(2234944)))];
            tensor<fp16, [128]> model_frontend_stem_bn1d_bias_to_fp16 = const()[name = string("model_frontend_stem_bn1d_bias_to_fp16"), val = tensor<fp16, [128]>(BLOBFILE(path = string("@model_path/weights/weight.bin"), offset = uint64(2235264)))];
            fp16 var_54_to_fp16 = const()[name = string("op_54_to_fp16"), val = fp16(0x1.5p-17)];
            tensor<fp16, [1, 128, 1500]> var_84_cast_fp16 = transpose(perm = var_84_perm_0, x = x_1_cast_fp16)[name = string("transpose_95")];
            tensor<fp16, [1, 128, 1500]> x_3_cast_fp16 = batch_norm(beta = model_frontend_stem_bn1d_bias_to_fp16, epsilon = var_54_to_fp16, gamma = model_frontend_stem_bn1d_weight_to_fp16, mean = model_frontend_stem_bn1d_running_mean_to_fp16, variance = model_frontend_stem_bn1d_running_var_to_fp16, x = var_84_cast_fp16)[name = string("x_3_cast_fp16")];
            tensor<int32, [1]> input_11_axes_0 = const()[name = string("input_11_axes_0"), val = tensor<int32, [1]>([1])];
            tensor<fp16, [1, 1, 128, 1500]> input_11_cast_fp16 = expand_dims(axes = input_11_axes_0, x = x_3_cast_fp16)[name = string("input_11_cast_fp16")];
            string input_13_pad_type_0 = const()[name = string("input_13_pad_type_0"), val = string("custom")];
            tensor<int32, [4]> input_13_pad_0 = const()[name = string("input_13_pad_0"), val = tensor<int32, [4]>([0, 0, 1, 1])];
            tensor<int32, [2]> input_13_strides_0 = const()[name = string("input_13_strides_0"), val = tensor<int32, [2]>([4, 1])];
            tensor<int32, [2]> input_13_dilations_0 = const()[name = string("input_13_dilations_0"), val = tensor<int32, [2]>([1, 1])];
            int32 input_13_groups_0 = const()[name = string("input_13_groups_0"), val = int32(1)];
            tensor<fp16, [32, 1, 4, 3]> const_104_to_fp16 = const()[name = string("const_104_to_fp16"), val = tensor<fp16, [32, 1, 4, 3]>(BLOBFILE(path = string("@model_path/weights/weight.bin"), offset = uint64(2235584)))];
            tensor<fp16, [32]> const_105_to_fp16 = const()[name = string("const_105_to_fp16"), val = tensor<fp16, [32]>(BLOBFILE(path = string("@model_path/weights/weight.bin"), offset = uint64(2236416)))];
            tensor<fp16, [1, 32, 32, 1500]> input_15_cast_fp16 = conv(bias = const_105_to_fp16, dilations = input_13_dilations_0, groups = input_13_groups_0, pad = input_13_pad_0, pad_type = input_13_pad_type_0, strides = input_13_strides_0, weight = const_104_to_fp16, x = input_11_cast_fp16)[name = string("input_15_cast_fp16")];
            string x_5_mode_0 = const()[name = string("x_5_mode_0"), val = string("EXACT")];
            tensor<fp16, [1, 32, 32, 1500]> x_5_cast_fp16 = gelu(mode = x_5_mode_0, x = input_15_cast_fp16)[name = string("x_5_cast_fp16")];
            tensor<int32, [4]> var_122 = const()[name = string("op_122"), val = tensor<int32, [4]>([0, 3, 2, 1])];
            tensor<int32, [3]> concat_0 = const()[name = string("concat_0"), val = tensor<int32, [3]>([1500, 32, 32])];
            tensor<fp16, [1, 1500, 32, 32]> var_123_cast_fp16 = transpose(perm = var_122, x = x_5_cast_fp16)[name = string("transpose_94")];
            tensor<fp16, [1500, 32, 32]> input_17_cast_fp16 = reshape(shape = concat_0, x = var_123_cast_fp16)[name = string("input_17_cast_fp16")];
            tensor<int32, [1]> var_132 = const()[name = string("op_132"), val = tensor<int32, [1]>([-1])];
            tensor<fp16, [1500, 32, 1]> var_133_cast_fp16 = reduce_l2_norm(axes = var_132, keep_dims = var_55, x = input_17_cast_fp16)[name = string("op_133_cast_fp16")];
            fp16 var_59_to_fp16 = const()[name = string("op_59_to_fp16"), val = fp16(0x1p-24)];
            tensor<fp16, [1500, 32, 1]> var_134_cast_fp16 = maximum(x = var_133_cast_fp16, y = var_59_to_fp16)[name = string("op_134_cast_fp16")];
            tensor<int32, [3]> denom_1_reps_0 = const()[name = string("denom_1_reps_0"), val = tensor<int32, [3]>([1, 1, 32])];
            tensor<fp16, [1500, 32, 32]> denom_1_cast_fp16 = tile(reps = denom_1_reps_0, x = var_134_cast_fp16)[name = string("denom_1_cast_fp16")];
            tensor<fp16, [1500, 32, 32]> var_136_cast_fp16 = real_div(x = input_17_cast_fp16, y = denom_1_cast_fp16)[name = string("op_136_cast_fp16")];
            fp16 var_137_to_fp16 = const()[name = string("op_137_to_fp16"), val = fp16(0x1.6ap+2)];
            tensor<fp16, [1500, 32, 32]> var_138_cast_fp16 = mul(x = var_136_cast_fp16, y = var_137_to_fp16)[name = string("op_138_cast_fp16")];
            tensor<fp16, [32]> model_frontend_blocks_0_partial_attnF_norm_gamma_to_fp16 = const()[name = string("model_frontend_blocks_0_partial_attnF_norm_gamma_to_fp16"), val = tensor<fp16, [32]>(BLOBFILE(path = string("@model_path/weights/weight.bin"), offset = uint64(2236544)))];
            tensor<fp16, [1500, 32, 32]> input_19_cast_fp16 = mul(x = var_138_cast_fp16, y = model_frontend_blocks_0_partial_attnF_norm_gamma_to_fp16)[name = string("input_19_cast_fp16")];
            tensor<fp16, [96, 32]> model_frontend_blocks_0_partial_attnF_to_qkv_weight_to_fp16 = const()[name = string("model_frontend_blocks_0_partial_attnF_to_qkv_weight_to_fp16"), val = tensor<fp16, [96, 32]>(BLOBFILE(path = string("@model_path/weights/weight.bin"), offset = uint64(2236672)))];
            tensor<fp16, [96]> linear_0_bias_0_to_fp16 = const()[name = string("linear_0_bias_0_to_fp16"), val = tensor<fp16, [96]>(BLOBFILE(path = string("@model_path/weights/weight.bin"), offset = uint64(2242880)))];
            tensor<fp16, [1500, 32, 96]> linear_0_cast_fp16 = linear(bias = linear_0_bias_0_to_fp16, weight = model_frontend_blocks_0_partial_attnF_to_qkv_weight_to_fp16, x = input_19_cast_fp16)[name = string("linear_0_cast_fp16")];
            tensor<int32, [5]> concat_1 = const()[name = string("concat_1"), val = tensor<int32, [5]>([1500, 32, 3, 1, -1])];
            tensor<fp16, [1500, 32, 3, 1, 32]> var_143_cast_fp16 = reshape(shape = concat_1, x = linear_0_cast_fp16)[name = string("op_143_cast_fp16")];
            tensor<int32, [5]> var_144 = const()[name = string("op_144"), val = tensor<int32, [5]>([2, 0, 3, 1, 4])];
            tensor<int32, [5]> t_1_begin_0 = const()[name = string("t_1_begin_0"), val = tensor<int32, [5]>([0, 0, 0, 0, 0])];
            tensor<int32, [5]> t_1_end_0 = const()[name = string("t_1_end_0"), val = tensor<int32, [5]>([1, 1500, 1, 32, 32])];
            tensor<bool, [5]> t_1_end_mask_0 = const()[name = string("t_1_end_mask_0"), val = tensor<bool, [5]>([false, true, true, true, true])];
            tensor<bool, [5]> t_1_squeeze_mask_0 = const()[name = string("t_1_squeeze_mask_0"), val = tensor<bool, [5]>([true, false, false, false, false])];
            tensor<fp16, [3, 1500, 1, 32, 32]> qkv_1_cast_fp16 = transpose(perm = var_144, x = var_143_cast_fp16)[name = string("transpose_93")];
            tensor<fp16, [1500, 1, 32, 32]> t_1_cast_fp16 = slice_by_index(begin = t_1_begin_0, end = t_1_end_0, end_mask = t_1_end_mask_0, squeeze_mask = t_1_squeeze_mask_0, x = qkv_1_cast_fp16)[name = string("t_1_cast_fp16")];
            tensor<int32, [5]> t_3_begin_0 = const()[name = string("t_3_begin_0"), val = tensor<int32, [5]>([1, 0, 0, 0, 0])];
            tensor<int32, [5]> t_3_end_0 = const()[name = string("t_3_end_0"), val = tensor<int32, [5]>([2, 1500, 1, 32, 32])];
            tensor<bool, [5]> t_3_end_mask_0 = const()[name = string("t_3_end_mask_0"), val = tensor<bool, [5]>([false, true, true, true, true])];
            tensor<bool, [5]> t_3_squeeze_mask_0 = const()[name = string("t_3_squeeze_mask_0"), val = tensor<bool, [5]>([true, false, false, false, false])];
            tensor<fp16, [1500, 1, 32, 32]> t_3_cast_fp16 = slice_by_index(begin = t_3_begin_0, end = t_3_end_0, end_mask = t_3_end_mask_0, squeeze_mask = t_3_squeeze_mask_0, x = qkv_1_cast_fp16)[name = string("t_3_cast_fp16")];
            tensor<int32, [5]> v_1_begin_0 = const()[name = string("v_1_begin_0"), val = tensor<int32, [5]>([2, 0, 0, 0, 0])];
            tensor<int32, [5]> v_1_end_0 = const()[name = string("v_1_end_0"), val = tensor<int32, [5]>([3, 1500, 1, 32, 32])];
            tensor<bool, [5]> v_1_end_mask_0 = const()[name = string("v_1_end_mask_0"), val = tensor<bool, [5]>([false, true, true, true, true])];
            tensor<bool, [5]> v_1_squeeze_mask_0 = const()[name = string("v_1_squeeze_mask_0"), val = tensor<bool, [5]>([true, false, false, false, false])];
            tensor<fp16, [1500, 1, 32, 32]> v_1_cast_fp16 = slice_by_index(begin = v_1_begin_0, end = v_1_end_0, end_mask = v_1_end_mask_0, squeeze_mask = v_1_squeeze_mask_0, x = qkv_1_cast_fp16)[name = string("v_1_cast_fp16")];
            tensor<fp16, [32, 32]> var_161_to_fp16 = const()[name = string("op_161_to_fp16"), val = tensor<fp16, [32, 32]>(BLOBFILE(path = string("@model_path/weights/weight.bin"), offset = uint64(2243136)))];
            tensor<fp16, [1500, 1, 32, 32]> var_162_cast_fp16 = mul(x = t_1_cast_fp16, y = var_161_to_fp16)[name = string("op_162_cast_fp16")];
            tensor<int32, [5]> concat_4 = const()[name = string("concat_4"), val = tensor<int32, [5]>([1500, 1, 32, -1, 2])];
            tensor<fp16, [1500, 1, 32, 16, 2]> x_7_cast_fp16 = reshape(shape = concat_4, x = t_1_cast_fp16)[name = string("x_7_cast_fp16")];
            tensor<int32, [5]> x1_1_begin_0 = const()[name = string("x1_1_begin_0"), val = tensor<int32, [5]>([0, 0, 0, 0, 0])];
            tensor<int32, [5]> x1_1_end_0 = const()[name = string("x1_1_end_0"), val = tensor<int32, [5]>([1500, 1, 32, 16, 1])];
            tensor<bool, [5]> x1_1_end_mask_0 = const()[name = string("x1_1_end_mask_0"), val = tensor<bool, [5]>([true, true, true, true, false])];
            tensor<bool, [5]> x1_1_squeeze_mask_0 = const()[name = string("x1_1_squeeze_mask_0"), val = tensor<bool, [5]>([false, false, false, false, true])];
            tensor<fp16, [1500, 1, 32, 16]> x1_1_cast_fp16 = slice_by_index(begin = x1_1_begin_0, end = x1_1_end_0, end_mask = x1_1_end_mask_0, squeeze_mask = x1_1_squeeze_mask_0, x = x_7_cast_fp16)[name = string("x1_1_cast_fp16")];
            tensor<int32, [5]> x2_1_begin_0 = const()[name = string("x2_1_begin_0"), val = tensor<int32, [5]>([0, 0, 0, 0, 1])];
            tensor<int32, [5]> x2_1_end_0 = const()[name = string("x2_1_end_0"), val = tensor<int32, [5]>([1500, 1, 32, 16, 2])];
            tensor<bool, [5]> x2_1_end_mask_0 = const()[name = string("x2_1_end_mask_0"), val = tensor<bool, [5]>([true, true, true, true, false])];
            tensor<bool, [5]> x2_1_squeeze_mask_0 = const()[name = string("x2_1_squeeze_mask_0"), val = tensor<bool, [5]>([false, false, false, false, true])];
            tensor<fp16, [1500, 1, 32, 16]> x2_1_cast_fp16 = slice_by_index(begin = x2_1_begin_0, end = x2_1_end_0, end_mask = x2_1_end_mask_0, squeeze_mask = x2_1_squeeze_mask_0, x = x_7_cast_fp16)[name = string("x2_1_cast_fp16")];
            fp16 const_11_promoted_to_fp16 = const()[name = string("const_11_promoted_to_fp16"), val = fp16(-0x1p+0)];
            tensor<fp16, [1500, 1, 32, 16]> var_167_cast_fp16 = mul(x = x2_1_cast_fp16, y = const_11_promoted_to_fp16)[name = string("op_167_cast_fp16")];
            int32 var_169_axis_0 = const()[name = string("op_169_axis_0"), val = int32(-1)];
            tensor<fp16, [1500, 1, 32, 16, 2]> var_169_cast_fp16 = stack(axis = var_169_axis_0, values = (var_167_cast_fp16, x1_1_cast_fp16))[name = string("op_169_cast_fp16")];
            tensor<int32, [4]> concat_5 = const()[name = string("concat_5"), val = tensor<int32, [4]>([1500, 1, 32, 32])];
            tensor<fp16, [1500, 1, 32, 32]> var_170_cast_fp16 = reshape(shape = concat_5, x = var_169_cast_fp16)[name = string("op_170_cast_fp16")];
            tensor<fp16, [32, 32]> var_171_to_fp16 = const()[name = string("op_171_to_fp16"), val = tensor<fp16, [32, 32]>(BLOBFILE(path = string("@model_path/weights/weight.bin"), offset = uint64(2245248)))];
            tensor<fp16, [1500, 1, 32, 32]> var_172_cast_fp16 = mul(x = var_170_cast_fp16, y = var_171_to_fp16)[name = string("op_172_cast_fp16")];
            tensor<fp16, [1500, 1, 32, 32]> q_1_cast_fp16 = add(x = var_162_cast_fp16, y = var_172_cast_fp16)[name = string("q_1_cast_fp16")];
            tensor<fp16, [1500, 1, 32, 32]> var_187_cast_fp16 = mul(x = t_3_cast_fp16, y = var_161_to_fp16)[name = string("op_187_cast_fp16")];
            tensor<int32, [5]> concat_8 = const()[name = string("concat_8"), val = tensor<int32, [5]>([1500, 1, 32, -1, 2])];
            tensor<fp16, [1500, 1, 32, 16, 2]> x_9_cast_fp16 = reshape(shape = concat_8, x = t_3_cast_fp16)[name = string("x_9_cast_fp16")];
            tensor<int32, [5]> x1_3_begin_0 = const()[name = string("x1_3_begin_0"), val = tensor<int32, [5]>([0, 0, 0, 0, 0])];
            tensor<int32, [5]> x1_3_end_0 = const()[name = string("x1_3_end_0"), val = tensor<int32, [5]>([1500, 1, 32, 16, 1])];
            tensor<bool, [5]> x1_3_end_mask_0 = const()[name = string("x1_3_end_mask_0"), val = tensor<bool, [5]>([true, true, true, true, false])];
            tensor<bool, [5]> x1_3_squeeze_mask_0 = const()[name = string("x1_3_squeeze_mask_0"), val = tensor<bool, [5]>([false, false, false, false, true])];
            tensor<fp16, [1500, 1, 32, 16]> x1_3_cast_fp16 = slice_by_index(begin = x1_3_begin_0, end = x1_3_end_0, end_mask = x1_3_end_mask_0, squeeze_mask = x1_3_squeeze_mask_0, x = x_9_cast_fp16)[name = string("x1_3_cast_fp16")];
            tensor<int32, [5]> x2_3_begin_0 = const()[name = string("x2_3_begin_0"), val = tensor<int32, [5]>([0, 0, 0, 0, 1])];
            tensor<int32, [5]> x2_3_end_0 = const()[name = string("x2_3_end_0"), val = tensor<int32, [5]>([1500, 1, 32, 16, 2])];
            tensor<bool, [5]> x2_3_end_mask_0 = const()[name = string("x2_3_end_mask_0"), val = tensor<bool, [5]>([true, true, true, true, false])];
            tensor<bool, [5]> x2_3_squeeze_mask_0 = const()[name = string("x2_3_squeeze_mask_0"), val = tensor<bool, [5]>([false, false, false, false, true])];
            tensor<fp16, [1500, 1, 32, 16]> x2_3_cast_fp16 = slice_by_index(begin = x2_3_begin_0, end = x2_3_end_0, end_mask = x2_3_end_mask_0, squeeze_mask = x2_3_squeeze_mask_0, x = x_9_cast_fp16)[name = string("x2_3_cast_fp16")];
            fp16 const_15_promoted_to_fp16 = const()[name = string("const_15_promoted_to_fp16"), val = fp16(-0x1p+0)];
            tensor<fp16, [1500, 1, 32, 16]> var_192_cast_fp16 = mul(x = x2_3_cast_fp16, y = const_15_promoted_to_fp16)[name = string("op_192_cast_fp16")];
            int32 var_194_axis_0 = const()[name = string("op_194_axis_0"), val = int32(-1)];
            tensor<fp16, [1500, 1, 32, 16, 2]> var_194_cast_fp16 = stack(axis = var_194_axis_0, values = (var_192_cast_fp16, x1_3_cast_fp16))[name = string("op_194_cast_fp16")];
            tensor<int32, [4]> concat_9 = const()[name = string("concat_9"), val = tensor<int32, [4]>([1500, 1, 32, 32])];
            tensor<fp16, [1500, 1, 32, 32]> var_195_cast_fp16 = reshape(shape = concat_9, x = var_194_cast_fp16)[name = string("op_195_cast_fp16")];
            tensor<fp16, [1500, 1, 32, 32]> var_197_cast_fp16 = mul(x = var_195_cast_fp16, y = var_171_to_fp16)[name = string("op_197_cast_fp16")];
            tensor<fp16, [1500, 1, 32, 32]> k_1_cast_fp16 = add(x = var_187_cast_fp16, y = var_197_cast_fp16)[name = string("k_1_cast_fp16")];
            tensor<fp16, [1500, 1, 32, 32]> out_1_cast_fp16 = scaled_dot_product_attention(key = k_1_cast_fp16, query = q_1_cast_fp16, value = v_1_cast_fp16)[name = string("out_1_cast_fp16")];
            tensor<fp16, [1, 32]> model_frontend_blocks_0_partial_attnF_to_gates_weight_to_fp16 = const()[name = string("model_frontend_blocks_0_partial_attnF_to_gates_weight_to_fp16"), val = tensor<fp16, [1, 32]>(BLOBFILE(path = string("@model_path/weights/weight.bin"), offset = uint64(2247360)))];
            tensor<fp16, [1]> model_frontend_blocks_0_partial_attnF_to_gates_bias_to_fp16 = const()[name = string("model_frontend_blocks_0_partial_attnF_to_gates_bias_to_fp16"), val = tensor<fp16, [1]>([-0x1.3c4p-6])];
            tensor<fp16, [1500, 32, 1]> linear_1_cast_fp16 = linear(bias = model_frontend_blocks_0_partial_attnF_to_gates_bias_to_fp16, weight = model_frontend_blocks_0_partial_attnF_to_gates_weight_to_fp16, x = input_19_cast_fp16)[name = string("linear_1_cast_fp16")];
            tensor<int32, [3]> var_203 = const()[name = string("op_203"), val = tensor<int32, [3]>([0, 2, 1])];
            tensor<int32, [1]> gates_1_axes_0 = const()[name = string("gates_1_axes_0"), val = tensor<int32, [1]>([-1])];
            tensor<fp16, [1500, 1, 32]> var_204_cast_fp16 = transpose(perm = var_203, x = linear_1_cast_fp16)[name = string("transpose_92")];
            tensor<fp16, [1500, 1, 32, 1]> gates_1_cast_fp16 = expand_dims(axes = gates_1_axes_0, x = var_204_cast_fp16)[name = string("gates_1_cast_fp16")];
            tensor<fp16, [1500, 1, 32, 1]> var_206_cast_fp16 = sigmoid(x = gates_1_cast_fp16)[name = string("op_206_cast_fp16")];
            tensor<fp16, [1500, 1, 32, 32]> out_3_cast_fp16 = mul(x = out_1_cast_fp16, y = var_206_cast_fp16)[name = string("out_3_cast_fp16")];
            tensor<int32, [4]> var_208 = const()[name = string("op_208"), val = tensor<int32, [4]>([0, 2, 1, 3])];
            tensor<int32, [3]> concat_10 = const()[name = string("concat_10"), val = tensor<int32, [3]>([1500, 32, 32])];
            tensor<fp16, [1500, 32, 1, 32]> var_209_cast_fp16 = transpose(perm = var_208, x = out_3_cast_fp16)[name = string("transpose_91")];
            tensor<fp16, [1500, 32, 32]> input_21_cast_fp16 = reshape(shape = concat_10, x = var_209_cast_fp16)[name = string("input_21_cast_fp16")];
            tensor<fp16, [32, 32]> model_frontend_blocks_0_partial_attnF_to_out_0_weight_to_fp16 = const()[name = string("model_frontend_blocks_0_partial_attnF_to_out_0_weight_to_fp16"), val = tensor<fp16, [32, 32]>(BLOBFILE(path = string("@model_path/weights/weight.bin"), offset = uint64(2247488)))];
            tensor<fp16, [32]> linear_2_bias_0_to_fp16 = const()[name = string("linear_2_bias_0_to_fp16"), val = tensor<fp16, [32]>(BLOBFILE(path = string("@model_path/weights/weight.bin"), offset = uint64(2249600)))];
            tensor<fp16, [1500, 32, 32]> linear_2_cast_fp16 = linear(bias = linear_2_bias_0_to_fp16, weight = model_frontend_blocks_0_partial_attnF_to_out_0_weight_to_fp16, x = input_21_cast_fp16)[name = string("linear_2_cast_fp16")];
            tensor<fp16, [1500, 32, 32]> input_25_cast_fp16 = add(x = input_17_cast_fp16, y = linear_2_cast_fp16)[name = string("input_25_cast_fp16")];
            tensor<int32, [1]> var_221 = const()[name = string("op_221"), val = tensor<int32, [1]>([-1])];
            tensor<fp16, [1500, 32, 1]> var_222_cast_fp16 = reduce_l2_norm(axes = var_221, keep_dims = var_55, x = input_25_cast_fp16)[name = string("op_222_cast_fp16")];
            tensor<fp16, [1500, 32, 1]> var_223_cast_fp16 = maximum(x = var_222_cast_fp16, y = var_59_to_fp16)[name = string("op_223_cast_fp16")];
            tensor<int32, [3]> denom_3_reps_0 = const()[name = string("denom_3_reps_0"), val = tensor<int32, [3]>([1, 1, 32])];
            tensor<fp16, [1500, 32, 32]> denom_3_cast_fp16 = tile(reps = denom_3_reps_0, x = var_223_cast_fp16)[name = string("denom_3_cast_fp16")];
            tensor<fp16, [1500, 32, 32]> var_225_cast_fp16 = real_div(x = input_25_cast_fp16, y = denom_3_cast_fp16)[name = string("op_225_cast_fp16")];
            fp16 var_226_to_fp16 = const()[name = string("op_226_to_fp16"), val = fp16(0x1.6ap+2)];
            tensor<fp16, [1500, 32, 32]> var_227_cast_fp16 = mul(x = var_225_cast_fp16, y = var_226_to_fp16)[name = string("op_227_cast_fp16")];
            tensor<fp16, [32]> model_frontend_blocks_0_partial_ffF_net_0_gamma_to_fp16 = const()[name = string("model_frontend_blocks_0_partial_ffF_net_0_gamma_to_fp16"), val = tensor<fp16, [32]>(BLOBFILE(path = string("@model_path/weights/weight.bin"), offset = uint64(2249728)))];
            tensor<fp16, [1500, 32, 32]> input_27_cast_fp16 = mul(x = var_227_cast_fp16, y = model_frontend_blocks_0_partial_ffF_net_0_gamma_to_fp16)[name = string("input_27_cast_fp16")];
            tensor<fp16, [128, 32]> model_frontend_blocks_0_partial_ffF_net_1_weight_to_fp16 = const()[name = string("model_frontend_blocks_0_partial_ffF_net_1_weight_to_fp16"), val = tensor<fp16, [128, 32]>(BLOBFILE(path = string("@model_path/weights/weight.bin"), offset = uint64(2249856)))];
            tensor<fp16, [128]> model_frontend_blocks_0_partial_ffF_net_1_bias_to_fp16 = const()[name = string("model_frontend_blocks_0_partial_ffF_net_1_bias_to_fp16"), val = tensor<fp16, [128]>(BLOBFILE(path = string("@model_path/weights/weight.bin"), offset = uint64(2258112)))];
            tensor<fp16, [1500, 32, 128]> linear_3_cast_fp16 = linear(bias = model_frontend_blocks_0_partial_ffF_net_1_bias_to_fp16, weight = model_frontend_blocks_0_partial_ffF_net_1_weight_to_fp16, x = input_27_cast_fp16)[name = string("linear_3_cast_fp16")];
            string input_31_mode_0 = const()[name = string("input_31_mode_0"), val = string("EXACT")];
            tensor<fp16, [1500, 32, 128]> input_31_cast_fp16 = gelu(mode = input_31_mode_0, x = linear_3_cast_fp16)[name = string("input_31_cast_fp16")];
            tensor<fp16, [32, 128]> model_frontend_blocks_0_partial_ffF_net_4_weight_to_fp16 = const()[name = string("model_frontend_blocks_0_partial_ffF_net_4_weight_to_fp16"), val = tensor<fp16, [32, 128]>(BLOBFILE(path = string("@model_path/weights/weight.bin"), offset = uint64(2258432)))];
            tensor<fp16, [32]> model_frontend_blocks_0_partial_ffF_net_4_bias_to_fp16 = const()[name = string("model_frontend_blocks_0_partial_ffF_net_4_bias_to_fp16"), val = tensor<fp16, [32]>(BLOBFILE(path = string("@model_path/weights/weight.bin"), offset = uint64(2266688)))];
            tensor<fp16, [1500, 32, 32]> linear_4_cast_fp16 = linear(bias = model_frontend_blocks_0_partial_ffF_net_4_bias_to_fp16, weight = model_frontend_blocks_0_partial_ffF_net_4_weight_to_fp16, x = input_31_cast_fp16)[name = string("linear_4_cast_fp16")];
            tensor<fp16, [1500, 32, 32]> var_238_cast_fp16 = add(x = input_25_cast_fp16, y = linear_4_cast_fp16)[name = string("op_238_cast_fp16")];
            tensor<int32, [4]> concat_11 = const()[name = string("concat_11"), val = tensor<int32, [4]>([1, -1, 32, 32])];
            tensor<fp16, [1, 1500, 32, 32]> var_240_cast_fp16 = reshape(shape = concat_11, x = var_238_cast_fp16)[name = string("op_240_cast_fp16")];
            tensor<int32, [4]> var_241 = const()[name = string("op_241"), val = tensor<int32, [4]>([0, 2, 1, 3])];
            tensor<int32, [3]> concat_12 = const()[name = string("concat_12"), val = tensor<int32, [3]>([32, 1500, 32])];
            tensor<fp16, [1, 32, 1500, 32]> var_242_cast_fp16 = transpose(perm = var_241, x = var_240_cast_fp16)[name = string("transpose_90")];
            tensor<fp16, [32, 1500, 32]> input_37_cast_fp16 = reshape(shape = concat_12, x = var_242_cast_fp16)[name = string("input_37_cast_fp16")];
            tensor<int32, [1]> var_249 = const()[name = string("op_249"), val = tensor<int32, [1]>([-1])];
            tensor<fp16, [32, 1500, 1]> var_250_cast_fp16 = reduce_l2_norm(axes = var_249, keep_dims = var_55, x = input_37_cast_fp16)[name = string("op_250_cast_fp16")];
            tensor<fp16, [32, 1500, 1]> var_251_cast_fp16 = maximum(x = var_250_cast_fp16, y = var_59_to_fp16)[name = string("op_251_cast_fp16")];
            tensor<int32, [3]> denom_5_reps_0 = const()[name = string("denom_5_reps_0"), val = tensor<int32, [3]>([1, 1, 32])];
            tensor<fp16, [32, 1500, 32]> denom_5_cast_fp16 = tile(reps = denom_5_reps_0, x = var_251_cast_fp16)[name = string("denom_5_cast_fp16")];
            tensor<fp16, [32, 1500, 32]> var_253_cast_fp16 = real_div(x = input_37_cast_fp16, y = denom_5_cast_fp16)[name = string("op_253_cast_fp16")];
            fp16 var_254_to_fp16 = const()[name = string("op_254_to_fp16"), val = fp16(0x1.6ap+2)];
            tensor<fp16, [32, 1500, 32]> var_255_cast_fp16 = mul(x = var_253_cast_fp16, y = var_254_to_fp16)[name = string("op_255_cast_fp16")];
            tensor<fp16, [32]> model_frontend_blocks_0_partial_attnT_norm_gamma_to_fp16 = const()[name = string("model_frontend_blocks_0_partial_attnT_norm_gamma_to_fp16"), val = tensor<fp16, [32]>(BLOBFILE(path = string("@model_path/weights/weight.bin"), offset = uint64(2266816)))];
            tensor<fp16, [32, 1500, 32]> input_39_cast_fp16 = mul(x = var_255_cast_fp16, y = model_frontend_blocks_0_partial_attnT_norm_gamma_to_fp16)[name = string("input_39_cast_fp16")];
            tensor<fp16, [96, 32]> model_frontend_blocks_0_partial_attnT_to_qkv_weight_to_fp16 = const()[name = string("model_frontend_blocks_0_partial_attnT_to_qkv_weight_to_fp16"), val = tensor<fp16, [96, 32]>(BLOBFILE(path = string("@model_path/weights/weight.bin"), offset = uint64(2266944)))];
            tensor<fp16, [96]> linear_5_bias_0_to_fp16 = const()[name = string("linear_5_bias_0_to_fp16"), val = tensor<fp16, [96]>(BLOBFILE(path = string("@model_path/weights/weight.bin"), offset = uint64(2273152)))];
            tensor<fp16, [32, 1500, 96]> linear_5_cast_fp16 = linear(bias = linear_5_bias_0_to_fp16, weight = model_frontend_blocks_0_partial_attnT_to_qkv_weight_to_fp16, x = input_39_cast_fp16)[name = string("linear_5_cast_fp16")];
            tensor<int32, [5]> concat_13 = const()[name = string("concat_13"), val = tensor<int32, [5]>([32, 1500, 3, 1, -1])];
            tensor<fp16, [32, 1500, 3, 1, 32]> var_260_cast_fp16 = reshape(shape = concat_13, x = linear_5_cast_fp16)[name = string("op_260_cast_fp16")];
            tensor<int32, [5]> var_261 = const()[name = string("op_261"), val = tensor<int32, [5]>([2, 0, 3, 1, 4])];
            tensor<int32, [5]> t_5_begin_0 = const()[name = string("t_5_begin_0"), val = tensor<int32, [5]>([0, 0, 0, 0, 0])];
            tensor<int32, [5]> t_5_end_0 = const()[name = string("t_5_end_0"), val = tensor<int32, [5]>([1, 32, 1, 1500, 32])];
            tensor<bool, [5]> t_5_end_mask_0 = const()[name = string("t_5_end_mask_0"), val = tensor<bool, [5]>([false, true, true, true, true])];
            tensor<bool, [5]> t_5_squeeze_mask_0 = const()[name = string("t_5_squeeze_mask_0"), val = tensor<bool, [5]>([true, false, false, false, false])];
            tensor<fp16, [3, 32, 1, 1500, 32]> qkv_3_cast_fp16 = transpose(perm = var_261, x = var_260_cast_fp16)[name = string("transpose_89")];
            tensor<fp16, [32, 1, 1500, 32]> t_5_cast_fp16 = slice_by_index(begin = t_5_begin_0, end = t_5_end_0, end_mask = t_5_end_mask_0, squeeze_mask = t_5_squeeze_mask_0, x = qkv_3_cast_fp16)[name = string("t_5_cast_fp16")];
            tensor<int32, [5]> t_7_begin_0 = const()[name = string("t_7_begin_0"), val = tensor<int32, [5]>([1, 0, 0, 0, 0])];
            tensor<int32, [5]> t_7_end_0 = const()[name = string("t_7_end_0"), val = tensor<int32, [5]>([2, 32, 1, 1500, 32])];
            tensor<bool, [5]> t_7_end_mask_0 = const()[name = string("t_7_end_mask_0"), val = tensor<bool, [5]>([false, true, true, true, true])];
            tensor<bool, [5]> t_7_squeeze_mask_0 = const()[name = string("t_7_squeeze_mask_0"), val = tensor<bool, [5]>([true, false, false, false, false])];
            tensor<fp16, [32, 1, 1500, 32]> t_7_cast_fp16 = slice_by_index(begin = t_7_begin_0, end = t_7_end_0, end_mask = t_7_end_mask_0, squeeze_mask = t_7_squeeze_mask_0, x = qkv_3_cast_fp16)[name = string("t_7_cast_fp16")];
            tensor<int32, [5]> v_3_begin_0 = const()[name = string("v_3_begin_0"), val = tensor<int32, [5]>([2, 0, 0, 0, 0])];
            tensor<int32, [5]> v_3_end_0 = const()[name = string("v_3_end_0"), val = tensor<int32, [5]>([3, 32, 1, 1500, 32])];
            tensor<bool, [5]> v_3_end_mask_0 = const()[name = string("v_3_end_mask_0"), val = tensor<bool, [5]>([false, true, true, true, true])];
            tensor<bool, [5]> v_3_squeeze_mask_0 = const()[name = string("v_3_squeeze_mask_0"), val = tensor<bool, [5]>([true, false, false, false, false])];
            tensor<fp16, [32, 1, 1500, 32]> v_3_cast_fp16 = slice_by_index(begin = v_3_begin_0, end = v_3_end_0, end_mask = v_3_end_mask_0, squeeze_mask = v_3_squeeze_mask_0, x = qkv_3_cast_fp16)[name = string("v_3_cast_fp16")];
            tensor<fp16, [1500, 32]> var_278_to_fp16 = const()[name = string("op_278_to_fp16"), val = tensor<fp16, [1500, 32]>(BLOBFILE(path = string("@model_path/weights/weight.bin"), offset = uint64(2273408)))];
            tensor<fp16, [32, 1, 1500, 32]> var_279_cast_fp16 = mul(x = t_5_cast_fp16, y = var_278_to_fp16)[name = string("op_279_cast_fp16")];
            tensor<int32, [5]> concat_16 = const()[name = string("concat_16"), val = tensor<int32, [5]>([32, 1, 1500, -1, 2])];
            tensor<fp16, [32, 1, 1500, 16, 2]> x_11_cast_fp16 = reshape(shape = concat_16, x = t_5_cast_fp16)[name = string("x_11_cast_fp16")];
            tensor<int32, [5]> x1_5_begin_0 = const()[name = string("x1_5_begin_0"), val = tensor<int32, [5]>([0, 0, 0, 0, 0])];
            tensor<int32, [5]> x1_5_end_0 = const()[name = string("x1_5_end_0"), val = tensor<int32, [5]>([32, 1, 1500, 16, 1])];
            tensor<bool, [5]> x1_5_end_mask_0 = const()[name = string("x1_5_end_mask_0"), val = tensor<bool, [5]>([true, true, true, true, false])];
            tensor<bool, [5]> x1_5_squeeze_mask_0 = const()[name = string("x1_5_squeeze_mask_0"), val = tensor<bool, [5]>([false, false, false, false, true])];
            tensor<fp16, [32, 1, 1500, 16]> x1_5_cast_fp16 = slice_by_index(begin = x1_5_begin_0, end = x1_5_end_0, end_mask = x1_5_end_mask_0, squeeze_mask = x1_5_squeeze_mask_0, x = x_11_cast_fp16)[name = string("x1_5_cast_fp16")];
            tensor<int32, [5]> x2_5_begin_0 = const()[name = string("x2_5_begin_0"), val = tensor<int32, [5]>([0, 0, 0, 0, 1])];
            tensor<int32, [5]> x2_5_end_0 = const()[name = string("x2_5_end_0"), val = tensor<int32, [5]>([32, 1, 1500, 16, 2])];
            tensor<bool, [5]> x2_5_end_mask_0 = const()[name = string("x2_5_end_mask_0"), val = tensor<bool, [5]>([true, true, true, true, false])];
            tensor<bool, [5]> x2_5_squeeze_mask_0 = const()[name = string("x2_5_squeeze_mask_0"), val = tensor<bool, [5]>([false, false, false, false, true])];
            tensor<fp16, [32, 1, 1500, 16]> x2_5_cast_fp16 = slice_by_index(begin = x2_5_begin_0, end = x2_5_end_0, end_mask = x2_5_end_mask_0, squeeze_mask = x2_5_squeeze_mask_0, x = x_11_cast_fp16)[name = string("x2_5_cast_fp16")];
            fp16 const_19_promoted_to_fp16 = const()[name = string("const_19_promoted_to_fp16"), val = fp16(-0x1p+0)];
            tensor<fp16, [32, 1, 1500, 16]> var_284_cast_fp16 = mul(x = x2_5_cast_fp16, y = const_19_promoted_to_fp16)[name = string("op_284_cast_fp16")];
            int32 var_286_axis_0 = const()[name = string("op_286_axis_0"), val = int32(-1)];
            tensor<fp16, [32, 1, 1500, 16, 2]> var_286_cast_fp16 = stack(axis = var_286_axis_0, values = (var_284_cast_fp16, x1_5_cast_fp16))[name = string("op_286_cast_fp16")];
            tensor<int32, [4]> concat_17 = const()[name = string("concat_17"), val = tensor<int32, [4]>([32, 1, 1500, 32])];
            tensor<fp16, [32, 1, 1500, 32]> var_287_cast_fp16 = reshape(shape = concat_17, x = var_286_cast_fp16)[name = string("op_287_cast_fp16")];
            tensor<fp16, [1500, 32]> var_288_to_fp16 = const()[name = string("op_288_to_fp16"), val = tensor<fp16, [1500, 32]>(BLOBFILE(path = string("@model_path/weights/weight.bin"), offset = uint64(2369472)))];
            tensor<fp16, [32, 1, 1500, 32]> var_289_cast_fp16 = mul(x = var_287_cast_fp16, y = var_288_to_fp16)[name = string("op_289_cast_fp16")];
            tensor<fp16, [32, 1, 1500, 32]> q_3_cast_fp16 = add(x = var_279_cast_fp16, y = var_289_cast_fp16)[name = string("q_3_cast_fp16")];
            tensor<fp16, [32, 1, 1500, 32]> var_304_cast_fp16 = mul(x = t_7_cast_fp16, y = var_278_to_fp16)[name = string("op_304_cast_fp16")];
            tensor<int32, [5]> concat_20 = const()[name = string("concat_20"), val = tensor<int32, [5]>([32, 1, 1500, -1, 2])];
            tensor<fp16, [32, 1, 1500, 16, 2]> x_13_cast_fp16 = reshape(shape = concat_20, x = t_7_cast_fp16)[name = string("x_13_cast_fp16")];
            tensor<int32, [5]> x1_7_begin_0 = const()[name = string("x1_7_begin_0"), val = tensor<int32, [5]>([0, 0, 0, 0, 0])];
            tensor<int32, [5]> x1_7_end_0 = const()[name = string("x1_7_end_0"), val = tensor<int32, [5]>([32, 1, 1500, 16, 1])];
            tensor<bool, [5]> x1_7_end_mask_0 = const()[name = string("x1_7_end_mask_0"), val = tensor<bool, [5]>([true, true, true, true, false])];
            tensor<bool, [5]> x1_7_squeeze_mask_0 = const()[name = string("x1_7_squeeze_mask_0"), val = tensor<bool, [5]>([false, false, false, false, true])];
            tensor<fp16, [32, 1, 1500, 16]> x1_7_cast_fp16 = slice_by_index(begin = x1_7_begin_0, end = x1_7_end_0, end_mask = x1_7_end_mask_0, squeeze_mask = x1_7_squeeze_mask_0, x = x_13_cast_fp16)[name = string("x1_7_cast_fp16")];
            tensor<int32, [5]> x2_7_begin_0 = const()[name = string("x2_7_begin_0"), val = tensor<int32, [5]>([0, 0, 0, 0, 1])];
            tensor<int32, [5]> x2_7_end_0 = const()[name = string("x2_7_end_0"), val = tensor<int32, [5]>([32, 1, 1500, 16, 2])];
            tensor<bool, [5]> x2_7_end_mask_0 = const()[name = string("x2_7_end_mask_0"), val = tensor<bool, [5]>([true, true, true, true, false])];
            tensor<bool, [5]> x2_7_squeeze_mask_0 = const()[name = string("x2_7_squeeze_mask_0"), val = tensor<bool, [5]>([false, false, false, false, true])];
            tensor<fp16, [32, 1, 1500, 16]> x2_7_cast_fp16 = slice_by_index(begin = x2_7_begin_0, end = x2_7_end_0, end_mask = x2_7_end_mask_0, squeeze_mask = x2_7_squeeze_mask_0, x = x_13_cast_fp16)[name = string("x2_7_cast_fp16")];
            fp16 const_23_promoted_to_fp16 = const()[name = string("const_23_promoted_to_fp16"), val = fp16(-0x1p+0)];
            tensor<fp16, [32, 1, 1500, 16]> var_309_cast_fp16 = mul(x = x2_7_cast_fp16, y = const_23_promoted_to_fp16)[name = string("op_309_cast_fp16")];
            int32 var_311_axis_0 = const()[name = string("op_311_axis_0"), val = int32(-1)];
            tensor<fp16, [32, 1, 1500, 16, 2]> var_311_cast_fp16 = stack(axis = var_311_axis_0, values = (var_309_cast_fp16, x1_7_cast_fp16))[name = string("op_311_cast_fp16")];
            tensor<int32, [4]> concat_21 = const()[name = string("concat_21"), val = tensor<int32, [4]>([32, 1, 1500, 32])];
            tensor<fp16, [32, 1, 1500, 32]> var_312_cast_fp16 = reshape(shape = concat_21, x = var_311_cast_fp16)[name = string("op_312_cast_fp16")];
            tensor<fp16, [32, 1, 1500, 32]> var_314_cast_fp16 = mul(x = var_312_cast_fp16, y = var_288_to_fp16)[name = string("op_314_cast_fp16")];
            tensor<fp16, [32, 1, 1500, 32]> k_3_cast_fp16 = add(x = var_304_cast_fp16, y = var_314_cast_fp16)[name = string("k_3_cast_fp16")];
            tensor<fp16, [32, 1, 1500, 32]> out_5_cast_fp16 = scaled_dot_product_attention(key = k_3_cast_fp16, query = q_3_cast_fp16, value = v_3_cast_fp16)[name = string("out_5_cast_fp16")];
            tensor<fp16, [1, 32]> model_frontend_blocks_0_partial_attnT_to_gates_weight_to_fp16 = const()[name = string("model_frontend_blocks_0_partial_attnT_to_gates_weight_to_fp16"), val = tensor<fp16, [1, 32]>(BLOBFILE(path = string("@model_path/weights/weight.bin"), offset = uint64(2465536)))];
            tensor<fp16, [1]> model_frontend_blocks_0_partial_attnT_to_gates_bias_to_fp16 = const()[name = string("model_frontend_blocks_0_partial_attnT_to_gates_bias_to_fp16"), val = tensor<fp16, [1]>([0x1.99p-5])];
            tensor<fp16, [32, 1500, 1]> linear_6_cast_fp16 = linear(bias = model_frontend_blocks_0_partial_attnT_to_gates_bias_to_fp16, weight = model_frontend_blocks_0_partial_attnT_to_gates_weight_to_fp16, x = input_39_cast_fp16)[name = string("linear_6_cast_fp16")];
            tensor<int32, [3]> var_320 = const()[name = string("op_320"), val = tensor<int32, [3]>([0, 2, 1])];
            tensor<int32, [1]> gates_3_axes_0 = const()[name = string("gates_3_axes_0"), val = tensor<int32, [1]>([-1])];
            tensor<fp16, [32, 1, 1500]> var_321_cast_fp16 = transpose(perm = var_320, x = linear_6_cast_fp16)[name = string("transpose_88")];
            tensor<fp16, [32, 1, 1500, 1]> gates_3_cast_fp16 = expand_dims(axes = gates_3_axes_0, x = var_321_cast_fp16)[name = string("gates_3_cast_fp16")];
            tensor<fp16, [32, 1, 1500, 1]> var_323_cast_fp16 = sigmoid(x = gates_3_cast_fp16)[name = string("op_323_cast_fp16")];
            tensor<fp16, [32, 1, 1500, 32]> out_7_cast_fp16 = mul(x = out_5_cast_fp16, y = var_323_cast_fp16)[name = string("out_7_cast_fp16")];
            tensor<int32, [4]> var_325 = const()[name = string("op_325"), val = tensor<int32, [4]>([0, 2, 1, 3])];
            tensor<int32, [3]> concat_22 = const()[name = string("concat_22"), val = tensor<int32, [3]>([32, 1500, 32])];
            tensor<fp16, [32, 1500, 1, 32]> var_326_cast_fp16 = transpose(perm = var_325, x = out_7_cast_fp16)[name = string("transpose_87")];
            tensor<fp16, [32, 1500, 32]> input_41_cast_fp16 = reshape(shape = concat_22, x = var_326_cast_fp16)[name = string("input_41_cast_fp16")];
            tensor<fp16, [32, 32]> model_frontend_blocks_0_partial_attnT_to_out_0_weight_to_fp16 = const()[name = string("model_frontend_blocks_0_partial_attnT_to_out_0_weight_to_fp16"), val = tensor<fp16, [32, 32]>(BLOBFILE(path = string("@model_path/weights/weight.bin"), offset = uint64(2465664)))];
            tensor<fp16, [32]> linear_7_bias_0_to_fp16 = const()[name = string("linear_7_bias_0_to_fp16"), val = tensor<fp16, [32]>(BLOBFILE(path = string("@model_path/weights/weight.bin"), offset = uint64(2467776)))];
            tensor<fp16, [32, 1500, 32]> linear_7_cast_fp16 = linear(bias = linear_7_bias_0_to_fp16, weight = model_frontend_blocks_0_partial_attnT_to_out_0_weight_to_fp16, x = input_41_cast_fp16)[name = string("linear_7_cast_fp16")];
            tensor<fp16, [32, 1500, 32]> input_45_cast_fp16 = add(x = input_37_cast_fp16, y = linear_7_cast_fp16)[name = string("input_45_cast_fp16")];
            tensor<int32, [1]> var_338 = const()[name = string("op_338"), val = tensor<int32, [1]>([-1])];
            tensor<fp16, [32, 1500, 1]> var_339_cast_fp16 = reduce_l2_norm(axes = var_338, keep_dims = var_55, x = input_45_cast_fp16)[name = string("op_339_cast_fp16")];
            tensor<fp16, [32, 1500, 1]> var_340_cast_fp16 = maximum(x = var_339_cast_fp16, y = var_59_to_fp16)[name = string("op_340_cast_fp16")];
            tensor<int32, [3]> denom_7_reps_0 = const()[name = string("denom_7_reps_0"), val = tensor<int32, [3]>([1, 1, 32])];
            tensor<fp16, [32, 1500, 32]> denom_7_cast_fp16 = tile(reps = denom_7_reps_0, x = var_340_cast_fp16)[name = string("denom_7_cast_fp16")];
            tensor<fp16, [32, 1500, 32]> var_342_cast_fp16 = real_div(x = input_45_cast_fp16, y = denom_7_cast_fp16)[name = string("op_342_cast_fp16")];
            fp16 var_343_to_fp16 = const()[name = string("op_343_to_fp16"), val = fp16(0x1.6ap+2)];
            tensor<fp16, [32, 1500, 32]> var_344_cast_fp16 = mul(x = var_342_cast_fp16, y = var_343_to_fp16)[name = string("op_344_cast_fp16")];
            tensor<fp16, [32]> model_frontend_blocks_0_partial_ffT_net_0_gamma_to_fp16 = const()[name = string("model_frontend_blocks_0_partial_ffT_net_0_gamma_to_fp16"), val = tensor<fp16, [32]>(BLOBFILE(path = string("@model_path/weights/weight.bin"), offset = uint64(2467904)))];
            tensor<fp16, [32, 1500, 32]> input_47_cast_fp16 = mul(x = var_344_cast_fp16, y = model_frontend_blocks_0_partial_ffT_net_0_gamma_to_fp16)[name = string("input_47_cast_fp16")];
            tensor<fp16, [128, 32]> model_frontend_blocks_0_partial_ffT_net_1_weight_to_fp16 = const()[name = string("model_frontend_blocks_0_partial_ffT_net_1_weight_to_fp16"), val = tensor<fp16, [128, 32]>(BLOBFILE(path = string("@model_path/weights/weight.bin"), offset = uint64(2468032)))];
            tensor<fp16, [128]> model_frontend_blocks_0_partial_ffT_net_1_bias_to_fp16 = const()[name = string("model_frontend_blocks_0_partial_ffT_net_1_bias_to_fp16"), val = tensor<fp16, [128]>(BLOBFILE(path = string("@model_path/weights/weight.bin"), offset = uint64(2476288)))];
            tensor<fp16, [32, 1500, 128]> linear_8_cast_fp16 = linear(bias = model_frontend_blocks_0_partial_ffT_net_1_bias_to_fp16, weight = model_frontend_blocks_0_partial_ffT_net_1_weight_to_fp16, x = input_47_cast_fp16)[name = string("linear_8_cast_fp16")];
            string input_51_mode_0 = const()[name = string("input_51_mode_0"), val = string("EXACT")];
            tensor<fp16, [32, 1500, 128]> input_51_cast_fp16 = gelu(mode = input_51_mode_0, x = linear_8_cast_fp16)[name = string("input_51_cast_fp16")];
            tensor<fp16, [32, 128]> model_frontend_blocks_0_partial_ffT_net_4_weight_to_fp16 = const()[name = string("model_frontend_blocks_0_partial_ffT_net_4_weight_to_fp16"), val = tensor<fp16, [32, 128]>(BLOBFILE(path = string("@model_path/weights/weight.bin"), offset = uint64(2476608)))];
            tensor<fp16, [32]> model_frontend_blocks_0_partial_ffT_net_4_bias_to_fp16 = const()[name = string("model_frontend_blocks_0_partial_ffT_net_4_bias_to_fp16"), val = tensor<fp16, [32]>(BLOBFILE(path = string("@model_path/weights/weight.bin"), offset = uint64(2484864)))];
            tensor<fp16, [32, 1500, 32]> linear_9_cast_fp16 = linear(bias = model_frontend_blocks_0_partial_ffT_net_4_bias_to_fp16, weight = model_frontend_blocks_0_partial_ffT_net_4_weight_to_fp16, x = input_51_cast_fp16)[name = string("linear_9_cast_fp16")];
            tensor<fp16, [32, 1500, 32]> var_355_cast_fp16 = add(x = input_45_cast_fp16, y = linear_9_cast_fp16)[name = string("op_355_cast_fp16")];
            tensor<int32, [4]> concat_23 = const()[name = string("concat_23"), val = tensor<int32, [4]>([1, -1, 1500, 32])];
            tensor<fp16, [1, 32, 1500, 32]> var_357_cast_fp16 = reshape(shape = concat_23, x = var_355_cast_fp16)[name = string("op_357_cast_fp16")];
            tensor<int32, [4]> var_358 = const()[name = string("op_358"), val = tensor<int32, [4]>([0, 3, 1, 2])];
            string input_59_pad_type_0 = const()[name = string("input_59_pad_type_0"), val = string("custom")];
            tensor<int32, [4]> input_59_pad_0 = const()[name = string("input_59_pad_0"), val = tensor<int32, [4]>([0, 0, 1, 1])];
            tensor<int32, [2]> input_59_strides_0 = const()[name = string("input_59_strides_0"), val = tensor<int32, [2]>([2, 1])];
            tensor<int32, [2]> input_59_dilations_0 = const()[name = string("input_59_dilations_0"), val = tensor<int32, [2]>([1, 1])];
            int32 input_59_groups_0 = const()[name = string("input_59_groups_0"), val = int32(1)];
            tensor<fp16, [64, 32, 2, 3]> const_106_to_fp16 = const()[name = string("const_106_to_fp16"), val = tensor<fp16, [64, 32, 2, 3]>(BLOBFILE(path = string("@model_path/weights/weight.bin"), offset = uint64(2484992)))];
            tensor<fp16, [64]> const_107_to_fp16 = const()[name = string("const_107_to_fp16"), val = tensor<fp16, [64]>(BLOBFILE(path = string("@model_path/weights/weight.bin"), offset = uint64(2509632)))];
            tensor<fp16, [1, 32, 32, 1500]> input_57_cast_fp16 = transpose(perm = var_358, x = var_357_cast_fp16)[name = string("transpose_86")];
            tensor<fp16, [1, 64, 16, 1500]> input_61_cast_fp16 = conv(bias = const_107_to_fp16, dilations = input_59_dilations_0, groups = input_59_groups_0, pad = input_59_pad_0, pad_type = input_59_pad_type_0, strides = input_59_strides_0, weight = const_106_to_fp16, x = input_57_cast_fp16)[name = string("input_61_cast_fp16")];
            string x_15_mode_0 = const()[name = string("x_15_mode_0"), val = string("EXACT")];
            tensor<fp16, [1, 64, 16, 1500]> x_15_cast_fp16 = gelu(mode = x_15_mode_0, x = input_61_cast_fp16)[name = string("x_15_cast_fp16")];
            tensor<int32, [4]> var_379 = const()[name = string("op_379"), val = tensor<int32, [4]>([0, 3, 2, 1])];
            tensor<int32, [3]> concat_24 = const()[name = string("concat_24"), val = tensor<int32, [3]>([1500, 16, 64])];
            tensor<fp16, [1, 1500, 16, 64]> var_380_cast_fp16 = transpose(perm = var_379, x = x_15_cast_fp16)[name = string("transpose_85")];
            tensor<fp16, [1500, 16, 64]> input_63_cast_fp16 = reshape(shape = concat_24, x = var_380_cast_fp16)[name = string("input_63_cast_fp16")];
            tensor<int32, [1]> var_387 = const()[name = string("op_387"), val = tensor<int32, [1]>([-1])];
            tensor<fp16, [1500, 16, 1]> var_388_cast_fp16 = reduce_l2_norm(axes = var_387, keep_dims = var_55, x = input_63_cast_fp16)[name = string("op_388_cast_fp16")];
            tensor<fp16, [1500, 16, 1]> var_389_cast_fp16 = maximum(x = var_388_cast_fp16, y = var_59_to_fp16)[name = string("op_389_cast_fp16")];
            tensor<int32, [3]> denom_9_reps_0 = const()[name = string("denom_9_reps_0"), val = tensor<int32, [3]>([1, 1, 64])];
            tensor<fp16, [1500, 16, 64]> denom_9_cast_fp16 = tile(reps = denom_9_reps_0, x = var_389_cast_fp16)[name = string("denom_9_cast_fp16")];
            tensor<fp16, [1500, 16, 64]> var_391_cast_fp16 = real_div(x = input_63_cast_fp16, y = denom_9_cast_fp16)[name = string("op_391_cast_fp16")];
            fp16 var_392_to_fp16 = const()[name = string("op_392_to_fp16"), val = fp16(0x1p+3)];
            tensor<fp16, [1500, 16, 64]> var_393_cast_fp16 = mul(x = var_391_cast_fp16, y = var_392_to_fp16)[name = string("op_393_cast_fp16")];
            tensor<fp16, [64]> model_frontend_blocks_1_partial_attnF_norm_gamma_to_fp16 = const()[name = string("model_frontend_blocks_1_partial_attnF_norm_gamma_to_fp16"), val = tensor<fp16, [64]>(BLOBFILE(path = string("@model_path/weights/weight.bin"), offset = uint64(2509824)))];
            tensor<fp16, [1500, 16, 64]> input_65_cast_fp16 = mul(x = var_393_cast_fp16, y = model_frontend_blocks_1_partial_attnF_norm_gamma_to_fp16)[name = string("input_65_cast_fp16")];
            tensor<fp16, [192, 64]> model_frontend_blocks_1_partial_attnF_to_qkv_weight_to_fp16 = const()[name = string("model_frontend_blocks_1_partial_attnF_to_qkv_weight_to_fp16"), val = tensor<fp16, [192, 64]>(BLOBFILE(path = string("@model_path/weights/weight.bin"), offset = uint64(2510016)))];
            tensor<fp16, [192]> linear_10_bias_0_to_fp16 = const()[name = string("linear_10_bias_0_to_fp16"), val = tensor<fp16, [192]>(BLOBFILE(path = string("@model_path/weights/weight.bin"), offset = uint64(2534656)))];
            tensor<fp16, [1500, 16, 192]> linear_10_cast_fp16 = linear(bias = linear_10_bias_0_to_fp16, weight = model_frontend_blocks_1_partial_attnF_to_qkv_weight_to_fp16, x = input_65_cast_fp16)[name = string("linear_10_cast_fp16")];
            tensor<int32, [5]> concat_25 = const()[name = string("concat_25"), val = tensor<int32, [5]>([1500, 16, 3, 2, -1])];
            tensor<fp16, [1500, 16, 3, 2, 32]> var_398_cast_fp16 = reshape(shape = concat_25, x = linear_10_cast_fp16)[name = string("op_398_cast_fp16")];
            tensor<int32, [5]> var_399 = const()[name = string("op_399"), val = tensor<int32, [5]>([2, 0, 3, 1, 4])];
            tensor<int32, [5]> t_9_begin_0 = const()[name = string("t_9_begin_0"), val = tensor<int32, [5]>([0, 0, 0, 0, 0])];
            tensor<int32, [5]> t_9_end_0 = const()[name = string("t_9_end_0"), val = tensor<int32, [5]>([1, 1500, 2, 16, 32])];
            tensor<bool, [5]> t_9_end_mask_0 = const()[name = string("t_9_end_mask_0"), val = tensor<bool, [5]>([false, true, true, true, true])];
            tensor<bool, [5]> t_9_squeeze_mask_0 = const()[name = string("t_9_squeeze_mask_0"), val = tensor<bool, [5]>([true, false, false, false, false])];
            tensor<fp16, [3, 1500, 2, 16, 32]> qkv_5_cast_fp16 = transpose(perm = var_399, x = var_398_cast_fp16)[name = string("transpose_84")];
            tensor<fp16, [1500, 2, 16, 32]> t_9_cast_fp16 = slice_by_index(begin = t_9_begin_0, end = t_9_end_0, end_mask = t_9_end_mask_0, squeeze_mask = t_9_squeeze_mask_0, x = qkv_5_cast_fp16)[name = string("t_9_cast_fp16")];
            tensor<int32, [5]> t_11_begin_0 = const()[name = string("t_11_begin_0"), val = tensor<int32, [5]>([1, 0, 0, 0, 0])];
            tensor<int32, [5]> t_11_end_0 = const()[name = string("t_11_end_0"), val = tensor<int32, [5]>([2, 1500, 2, 16, 32])];
            tensor<bool, [5]> t_11_end_mask_0 = const()[name = string("t_11_end_mask_0"), val = tensor<bool, [5]>([false, true, true, true, true])];
            tensor<bool, [5]> t_11_squeeze_mask_0 = const()[name = string("t_11_squeeze_mask_0"), val = tensor<bool, [5]>([true, false, false, false, false])];
            tensor<fp16, [1500, 2, 16, 32]> t_11_cast_fp16 = slice_by_index(begin = t_11_begin_0, end = t_11_end_0, end_mask = t_11_end_mask_0, squeeze_mask = t_11_squeeze_mask_0, x = qkv_5_cast_fp16)[name = string("t_11_cast_fp16")];
            tensor<int32, [5]> v_5_begin_0 = const()[name = string("v_5_begin_0"), val = tensor<int32, [5]>([2, 0, 0, 0, 0])];
            tensor<int32, [5]> v_5_end_0 = const()[name = string("v_5_end_0"), val = tensor<int32, [5]>([3, 1500, 2, 16, 32])];
            tensor<bool, [5]> v_5_end_mask_0 = const()[name = string("v_5_end_mask_0"), val = tensor<bool, [5]>([false, true, true, true, true])];
            tensor<bool, [5]> v_5_squeeze_mask_0 = const()[name = string("v_5_squeeze_mask_0"), val = tensor<bool, [5]>([true, false, false, false, false])];
            tensor<fp16, [1500, 2, 16, 32]> v_5_cast_fp16 = slice_by_index(begin = v_5_begin_0, end = v_5_end_0, end_mask = v_5_end_mask_0, squeeze_mask = v_5_squeeze_mask_0, x = qkv_5_cast_fp16)[name = string("v_5_cast_fp16")];
            tensor<fp16, [16, 32]> var_416_to_fp16 = const()[name = string("op_416_to_fp16"), val = tensor<fp16, [16, 32]>(BLOBFILE(path = string("@model_path/weights/weight.bin"), offset = uint64(2535104)))];
            tensor<fp16, [1500, 2, 16, 32]> var_417_cast_fp16 = mul(x = t_9_cast_fp16, y = var_416_to_fp16)[name = string("op_417_cast_fp16")];
            tensor<int32, [5]> concat_28 = const()[name = string("concat_28"), val = tensor<int32, [5]>([1500, 2, 16, -1, 2])];
            tensor<fp16, [1500, 2, 16, 16, 2]> x_17_cast_fp16 = reshape(shape = concat_28, x = t_9_cast_fp16)[name = string("x_17_cast_fp16")];
            tensor<int32, [5]> x1_9_begin_0 = const()[name = string("x1_9_begin_0"), val = tensor<int32, [5]>([0, 0, 0, 0, 0])];
            tensor<int32, [5]> x1_9_end_0 = const()[name = string("x1_9_end_0"), val = tensor<int32, [5]>([1500, 2, 16, 16, 1])];
            tensor<bool, [5]> x1_9_end_mask_0 = const()[name = string("x1_9_end_mask_0"), val = tensor<bool, [5]>([true, true, true, true, false])];
            tensor<bool, [5]> x1_9_squeeze_mask_0 = const()[name = string("x1_9_squeeze_mask_0"), val = tensor<bool, [5]>([false, false, false, false, true])];
            tensor<fp16, [1500, 2, 16, 16]> x1_9_cast_fp16 = slice_by_index(begin = x1_9_begin_0, end = x1_9_end_0, end_mask = x1_9_end_mask_0, squeeze_mask = x1_9_squeeze_mask_0, x = x_17_cast_fp16)[name = string("x1_9_cast_fp16")];
            tensor<int32, [5]> x2_9_begin_0 = const()[name = string("x2_9_begin_0"), val = tensor<int32, [5]>([0, 0, 0, 0, 1])];
            tensor<int32, [5]> x2_9_end_0 = const()[name = string("x2_9_end_0"), val = tensor<int32, [5]>([1500, 2, 16, 16, 2])];
            tensor<bool, [5]> x2_9_end_mask_0 = const()[name = string("x2_9_end_mask_0"), val = tensor<bool, [5]>([true, true, true, true, false])];
            tensor<bool, [5]> x2_9_squeeze_mask_0 = const()[name = string("x2_9_squeeze_mask_0"), val = tensor<bool, [5]>([false, false, false, false, true])];
            tensor<fp16, [1500, 2, 16, 16]> x2_9_cast_fp16 = slice_by_index(begin = x2_9_begin_0, end = x2_9_end_0, end_mask = x2_9_end_mask_0, squeeze_mask = x2_9_squeeze_mask_0, x = x_17_cast_fp16)[name = string("x2_9_cast_fp16")];
            fp16 const_27_promoted_to_fp16 = const()[name = string("const_27_promoted_to_fp16"), val = fp16(-0x1p+0)];
            tensor<fp16, [1500, 2, 16, 16]> var_422_cast_fp16 = mul(x = x2_9_cast_fp16, y = const_27_promoted_to_fp16)[name = string("op_422_cast_fp16")];
            int32 var_424_axis_0 = const()[name = string("op_424_axis_0"), val = int32(-1)];
            tensor<fp16, [1500, 2, 16, 16, 2]> var_424_cast_fp16 = stack(axis = var_424_axis_0, values = (var_422_cast_fp16, x1_9_cast_fp16))[name = string("op_424_cast_fp16")];
            tensor<int32, [4]> concat_29 = const()[name = string("concat_29"), val = tensor<int32, [4]>([1500, 2, 16, 32])];
            tensor<fp16, [1500, 2, 16, 32]> var_425_cast_fp16 = reshape(shape = concat_29, x = var_424_cast_fp16)[name = string("op_425_cast_fp16")];
            tensor<fp16, [16, 32]> var_426_to_fp16 = const()[name = string("op_426_to_fp16"), val = tensor<fp16, [16, 32]>(BLOBFILE(path = string("@model_path/weights/weight.bin"), offset = uint64(2536192)))];
            tensor<fp16, [1500, 2, 16, 32]> var_427_cast_fp16 = mul(x = var_425_cast_fp16, y = var_426_to_fp16)[name = string("op_427_cast_fp16")];
            tensor<fp16, [1500, 2, 16, 32]> q_5_cast_fp16 = add(x = var_417_cast_fp16, y = var_427_cast_fp16)[name = string("q_5_cast_fp16")];
            tensor<fp16, [1500, 2, 16, 32]> var_442_cast_fp16 = mul(x = t_11_cast_fp16, y = var_416_to_fp16)[name = string("op_442_cast_fp16")];
            tensor<int32, [5]> concat_32 = const()[name = string("concat_32"), val = tensor<int32, [5]>([1500, 2, 16, -1, 2])];
            tensor<fp16, [1500, 2, 16, 16, 2]> x_19_cast_fp16 = reshape(shape = concat_32, x = t_11_cast_fp16)[name = string("x_19_cast_fp16")];
            tensor<int32, [5]> x1_11_begin_0 = const()[name = string("x1_11_begin_0"), val = tensor<int32, [5]>([0, 0, 0, 0, 0])];
            tensor<int32, [5]> x1_11_end_0 = const()[name = string("x1_11_end_0"), val = tensor<int32, [5]>([1500, 2, 16, 16, 1])];
            tensor<bool, [5]> x1_11_end_mask_0 = const()[name = string("x1_11_end_mask_0"), val = tensor<bool, [5]>([true, true, true, true, false])];
            tensor<bool, [5]> x1_11_squeeze_mask_0 = const()[name = string("x1_11_squeeze_mask_0"), val = tensor<bool, [5]>([false, false, false, false, true])];
            tensor<fp16, [1500, 2, 16, 16]> x1_11_cast_fp16 = slice_by_index(begin = x1_11_begin_0, end = x1_11_end_0, end_mask = x1_11_end_mask_0, squeeze_mask = x1_11_squeeze_mask_0, x = x_19_cast_fp16)[name = string("x1_11_cast_fp16")];
            tensor<int32, [5]> x2_11_begin_0 = const()[name = string("x2_11_begin_0"), val = tensor<int32, [5]>([0, 0, 0, 0, 1])];
            tensor<int32, [5]> x2_11_end_0 = const()[name = string("x2_11_end_0"), val = tensor<int32, [5]>([1500, 2, 16, 16, 2])];
            tensor<bool, [5]> x2_11_end_mask_0 = const()[name = string("x2_11_end_mask_0"), val = tensor<bool, [5]>([true, true, true, true, false])];
            tensor<bool, [5]> x2_11_squeeze_mask_0 = const()[name = string("x2_11_squeeze_mask_0"), val = tensor<bool, [5]>([false, false, false, false, true])];
            tensor<fp16, [1500, 2, 16, 16]> x2_11_cast_fp16 = slice_by_index(begin = x2_11_begin_0, end = x2_11_end_0, end_mask = x2_11_end_mask_0, squeeze_mask = x2_11_squeeze_mask_0, x = x_19_cast_fp16)[name = string("x2_11_cast_fp16")];
            fp16 const_31_promoted_to_fp16 = const()[name = string("const_31_promoted_to_fp16"), val = fp16(-0x1p+0)];
            tensor<fp16, [1500, 2, 16, 16]> var_447_cast_fp16 = mul(x = x2_11_cast_fp16, y = const_31_promoted_to_fp16)[name = string("op_447_cast_fp16")];
            int32 var_449_axis_0 = const()[name = string("op_449_axis_0"), val = int32(-1)];
            tensor<fp16, [1500, 2, 16, 16, 2]> var_449_cast_fp16 = stack(axis = var_449_axis_0, values = (var_447_cast_fp16, x1_11_cast_fp16))[name = string("op_449_cast_fp16")];
            tensor<int32, [4]> concat_33 = const()[name = string("concat_33"), val = tensor<int32, [4]>([1500, 2, 16, 32])];
            tensor<fp16, [1500, 2, 16, 32]> var_450_cast_fp16 = reshape(shape = concat_33, x = var_449_cast_fp16)[name = string("op_450_cast_fp16")];
            tensor<fp16, [1500, 2, 16, 32]> var_452_cast_fp16 = mul(x = var_450_cast_fp16, y = var_426_to_fp16)[name = string("op_452_cast_fp16")];
            tensor<fp16, [1500, 2, 16, 32]> k_5_cast_fp16 = add(x = var_442_cast_fp16, y = var_452_cast_fp16)[name = string("k_5_cast_fp16")];
            tensor<fp16, [1500, 2, 16, 32]> out_9_cast_fp16 = scaled_dot_product_attention(key = k_5_cast_fp16, query = q_5_cast_fp16, value = v_5_cast_fp16)[name = string("out_9_cast_fp16")];
            tensor<fp16, [2, 64]> model_frontend_blocks_1_partial_attnF_to_gates_weight_to_fp16 = const()[name = string("model_frontend_blocks_1_partial_attnF_to_gates_weight_to_fp16"), val = tensor<fp16, [2, 64]>(BLOBFILE(path = string("@model_path/weights/weight.bin"), offset = uint64(2537280)))];
            tensor<fp16, [2]> model_frontend_blocks_1_partial_attnF_to_gates_bias_to_fp16 = const()[name = string("model_frontend_blocks_1_partial_attnF_to_gates_bias_to_fp16"), val = tensor<fp16, [2]>([-0x1.484p-5, -0x1.cd8p-6])];
            tensor<fp16, [1500, 16, 2]> linear_11_cast_fp16 = linear(bias = model_frontend_blocks_1_partial_attnF_to_gates_bias_to_fp16, weight = model_frontend_blocks_1_partial_attnF_to_gates_weight_to_fp16, x = input_65_cast_fp16)[name = string("linear_11_cast_fp16")];
            tensor<int32, [3]> var_458 = const()[name = string("op_458"), val = tensor<int32, [3]>([0, 2, 1])];
            tensor<int32, [1]> gates_5_axes_0 = const()[name = string("gates_5_axes_0"), val = tensor<int32, [1]>([-1])];
            tensor<fp16, [1500, 2, 16]> var_459_cast_fp16 = transpose(perm = var_458, x = linear_11_cast_fp16)[name = string("transpose_83")];
            tensor<fp16, [1500, 2, 16, 1]> gates_5_cast_fp16 = expand_dims(axes = gates_5_axes_0, x = var_459_cast_fp16)[name = string("gates_5_cast_fp16")];
            tensor<fp16, [1500, 2, 16, 1]> var_461_cast_fp16 = sigmoid(x = gates_5_cast_fp16)[name = string("op_461_cast_fp16")];
            tensor<fp16, [1500, 2, 16, 32]> out_11_cast_fp16 = mul(x = out_9_cast_fp16, y = var_461_cast_fp16)[name = string("out_11_cast_fp16")];
            tensor<int32, [4]> var_463 = const()[name = string("op_463"), val = tensor<int32, [4]>([0, 2, 1, 3])];
            tensor<int32, [3]> concat_34 = const()[name = string("concat_34"), val = tensor<int32, [3]>([1500, 16, 64])];
            tensor<fp16, [1500, 16, 2, 32]> var_464_cast_fp16 = transpose(perm = var_463, x = out_11_cast_fp16)[name = string("transpose_82")];
            tensor<fp16, [1500, 16, 64]> input_67_cast_fp16 = reshape(shape = concat_34, x = var_464_cast_fp16)[name = string("input_67_cast_fp16")];
            tensor<fp16, [64, 64]> model_frontend_blocks_1_partial_attnF_to_out_0_weight_to_fp16 = const()[name = string("model_frontend_blocks_1_partial_attnF_to_out_0_weight_to_fp16"), val = tensor<fp16, [64, 64]>(BLOBFILE(path = string("@model_path/weights/weight.bin"), offset = uint64(2537600)))];
            tensor<fp16, [64]> linear_12_bias_0_to_fp16 = const()[name = string("linear_12_bias_0_to_fp16"), val = tensor<fp16, [64]>(BLOBFILE(path = string("@model_path/weights/weight.bin"), offset = uint64(2545856)))];
            tensor<fp16, [1500, 16, 64]> linear_12_cast_fp16 = linear(bias = linear_12_bias_0_to_fp16, weight = model_frontend_blocks_1_partial_attnF_to_out_0_weight_to_fp16, x = input_67_cast_fp16)[name = string("linear_12_cast_fp16")];
            tensor<fp16, [1500, 16, 64]> input_71_cast_fp16 = add(x = input_63_cast_fp16, y = linear_12_cast_fp16)[name = string("input_71_cast_fp16")];
            tensor<int32, [1]> var_476 = const()[name = string("op_476"), val = tensor<int32, [1]>([-1])];
            tensor<fp16, [1500, 16, 1]> var_477_cast_fp16 = reduce_l2_norm(axes = var_476, keep_dims = var_55, x = input_71_cast_fp16)[name = string("op_477_cast_fp16")];
            tensor<fp16, [1500, 16, 1]> var_478_cast_fp16 = maximum(x = var_477_cast_fp16, y = var_59_to_fp16)[name = string("op_478_cast_fp16")];
            tensor<int32, [3]> denom_11_reps_0 = const()[name = string("denom_11_reps_0"), val = tensor<int32, [3]>([1, 1, 64])];
            tensor<fp16, [1500, 16, 64]> denom_11_cast_fp16 = tile(reps = denom_11_reps_0, x = var_478_cast_fp16)[name = string("denom_11_cast_fp16")];
            tensor<fp16, [1500, 16, 64]> var_480_cast_fp16 = real_div(x = input_71_cast_fp16, y = denom_11_cast_fp16)[name = string("op_480_cast_fp16")];
            fp16 var_481_to_fp16 = const()[name = string("op_481_to_fp16"), val = fp16(0x1p+3)];
            tensor<fp16, [1500, 16, 64]> var_482_cast_fp16 = mul(x = var_480_cast_fp16, y = var_481_to_fp16)[name = string("op_482_cast_fp16")];
            tensor<fp16, [64]> model_frontend_blocks_1_partial_ffF_net_0_gamma_to_fp16 = const()[name = string("model_frontend_blocks_1_partial_ffF_net_0_gamma_to_fp16"), val = tensor<fp16, [64]>(BLOBFILE(path = string("@model_path/weights/weight.bin"), offset = uint64(2546048)))];
            tensor<fp16, [1500, 16, 64]> input_73_cast_fp16 = mul(x = var_482_cast_fp16, y = model_frontend_blocks_1_partial_ffF_net_0_gamma_to_fp16)[name = string("input_73_cast_fp16")];
            tensor<fp16, [256, 64]> model_frontend_blocks_1_partial_ffF_net_1_weight_to_fp16 = const()[name = string("model_frontend_blocks_1_partial_ffF_net_1_weight_to_fp16"), val = tensor<fp16, [256, 64]>(BLOBFILE(path = string("@model_path/weights/weight.bin"), offset = uint64(2546240)))];
            tensor<fp16, [256]> model_frontend_blocks_1_partial_ffF_net_1_bias_to_fp16 = const()[name = string("model_frontend_blocks_1_partial_ffF_net_1_bias_to_fp16"), val = tensor<fp16, [256]>(BLOBFILE(path = string("@model_path/weights/weight.bin"), offset = uint64(2579072)))];
            tensor<fp16, [1500, 16, 256]> linear_13_cast_fp16 = linear(bias = model_frontend_blocks_1_partial_ffF_net_1_bias_to_fp16, weight = model_frontend_blocks_1_partial_ffF_net_1_weight_to_fp16, x = input_73_cast_fp16)[name = string("linear_13_cast_fp16")];
            string input_77_mode_0 = const()[name = string("input_77_mode_0"), val = string("EXACT")];
            tensor<fp16, [1500, 16, 256]> input_77_cast_fp16 = gelu(mode = input_77_mode_0, x = linear_13_cast_fp16)[name = string("input_77_cast_fp16")];
            tensor<fp16, [64, 256]> model_frontend_blocks_1_partial_ffF_net_4_weight_to_fp16 = const()[name = string("model_frontend_blocks_1_partial_ffF_net_4_weight_to_fp16"), val = tensor<fp16, [64, 256]>(BLOBFILE(path = string("@model_path/weights/weight.bin"), offset = uint64(2579648)))];
            tensor<fp16, [64]> model_frontend_blocks_1_partial_ffF_net_4_bias_to_fp16 = const()[name = string("model_frontend_blocks_1_partial_ffF_net_4_bias_to_fp16"), val = tensor<fp16, [64]>(BLOBFILE(path = string("@model_path/weights/weight.bin"), offset = uint64(2612480)))];
            tensor<fp16, [1500, 16, 64]> linear_14_cast_fp16 = linear(bias = model_frontend_blocks_1_partial_ffF_net_4_bias_to_fp16, weight = model_frontend_blocks_1_partial_ffF_net_4_weight_to_fp16, x = input_77_cast_fp16)[name = string("linear_14_cast_fp16")];
            tensor<fp16, [1500, 16, 64]> var_493_cast_fp16 = add(x = input_71_cast_fp16, y = linear_14_cast_fp16)[name = string("op_493_cast_fp16")];
            tensor<int32, [4]> concat_35 = const()[name = string("concat_35"), val = tensor<int32, [4]>([1, -1, 16, 64])];
            tensor<fp16, [1, 1500, 16, 64]> var_495_cast_fp16 = reshape(shape = concat_35, x = var_493_cast_fp16)[name = string("op_495_cast_fp16")];
            tensor<int32, [4]> var_496 = const()[name = string("op_496"), val = tensor<int32, [4]>([0, 2, 1, 3])];
            tensor<int32, [3]> concat_36 = const()[name = string("concat_36"), val = tensor<int32, [3]>([16, 1500, 64])];
            tensor<fp16, [1, 16, 1500, 64]> var_497_cast_fp16 = transpose(perm = var_496, x = var_495_cast_fp16)[name = string("transpose_81")];
            tensor<fp16, [16, 1500, 64]> input_83_cast_fp16 = reshape(shape = concat_36, x = var_497_cast_fp16)[name = string("input_83_cast_fp16")];
            tensor<int32, [1]> var_504 = const()[name = string("op_504"), val = tensor<int32, [1]>([-1])];
            tensor<fp16, [16, 1500, 1]> var_505_cast_fp16 = reduce_l2_norm(axes = var_504, keep_dims = var_55, x = input_83_cast_fp16)[name = string("op_505_cast_fp16")];
            tensor<fp16, [16, 1500, 1]> var_506_cast_fp16 = maximum(x = var_505_cast_fp16, y = var_59_to_fp16)[name = string("op_506_cast_fp16")];
            tensor<int32, [3]> denom_13_reps_0 = const()[name = string("denom_13_reps_0"), val = tensor<int32, [3]>([1, 1, 64])];
            tensor<fp16, [16, 1500, 64]> denom_13_cast_fp16 = tile(reps = denom_13_reps_0, x = var_506_cast_fp16)[name = string("denom_13_cast_fp16")];
            tensor<fp16, [16, 1500, 64]> var_508_cast_fp16 = real_div(x = input_83_cast_fp16, y = denom_13_cast_fp16)[name = string("op_508_cast_fp16")];
            fp16 var_509_to_fp16 = const()[name = string("op_509_to_fp16"), val = fp16(0x1p+3)];
            tensor<fp16, [16, 1500, 64]> var_510_cast_fp16 = mul(x = var_508_cast_fp16, y = var_509_to_fp16)[name = string("op_510_cast_fp16")];
            tensor<fp16, [64]> model_frontend_blocks_1_partial_attnT_norm_gamma_to_fp16 = const()[name = string("model_frontend_blocks_1_partial_attnT_norm_gamma_to_fp16"), val = tensor<fp16, [64]>(BLOBFILE(path = string("@model_path/weights/weight.bin"), offset = uint64(2612672)))];
            tensor<fp16, [16, 1500, 64]> input_85_cast_fp16 = mul(x = var_510_cast_fp16, y = model_frontend_blocks_1_partial_attnT_norm_gamma_to_fp16)[name = string("input_85_cast_fp16")];
            tensor<fp16, [192, 64]> model_frontend_blocks_1_partial_attnT_to_qkv_weight_to_fp16 = const()[name = string("model_frontend_blocks_1_partial_attnT_to_qkv_weight_to_fp16"), val = tensor<fp16, [192, 64]>(BLOBFILE(path = string("@model_path/weights/weight.bin"), offset = uint64(2612864)))];
            tensor<fp16, [16, 1500, 192]> linear_15_cast_fp16 = linear(bias = linear_10_bias_0_to_fp16, weight = model_frontend_blocks_1_partial_attnT_to_qkv_weight_to_fp16, x = input_85_cast_fp16)[name = string("linear_15_cast_fp16")];
            tensor<int32, [5]> concat_37 = const()[name = string("concat_37"), val = tensor<int32, [5]>([16, 1500, 3, 2, -1])];
            tensor<fp16, [16, 1500, 3, 2, 32]> var_515_cast_fp16 = reshape(shape = concat_37, x = linear_15_cast_fp16)[name = string("op_515_cast_fp16")];
            tensor<int32, [5]> var_516 = const()[name = string("op_516"), val = tensor<int32, [5]>([2, 0, 3, 1, 4])];
            tensor<int32, [5]> t_13_begin_0 = const()[name = string("t_13_begin_0"), val = tensor<int32, [5]>([0, 0, 0, 0, 0])];
            tensor<int32, [5]> t_13_end_0 = const()[name = string("t_13_end_0"), val = tensor<int32, [5]>([1, 16, 2, 1500, 32])];
            tensor<bool, [5]> t_13_end_mask_0 = const()[name = string("t_13_end_mask_0"), val = tensor<bool, [5]>([false, true, true, true, true])];
            tensor<bool, [5]> t_13_squeeze_mask_0 = const()[name = string("t_13_squeeze_mask_0"), val = tensor<bool, [5]>([true, false, false, false, false])];
            tensor<fp16, [3, 16, 2, 1500, 32]> qkv_7_cast_fp16 = transpose(perm = var_516, x = var_515_cast_fp16)[name = string("transpose_80")];
            tensor<fp16, [16, 2, 1500, 32]> t_13_cast_fp16 = slice_by_index(begin = t_13_begin_0, end = t_13_end_0, end_mask = t_13_end_mask_0, squeeze_mask = t_13_squeeze_mask_0, x = qkv_7_cast_fp16)[name = string("t_13_cast_fp16")];
            tensor<int32, [5]> t_15_begin_0 = const()[name = string("t_15_begin_0"), val = tensor<int32, [5]>([1, 0, 0, 0, 0])];
            tensor<int32, [5]> t_15_end_0 = const()[name = string("t_15_end_0"), val = tensor<int32, [5]>([2, 16, 2, 1500, 32])];
            tensor<bool, [5]> t_15_end_mask_0 = const()[name = string("t_15_end_mask_0"), val = tensor<bool, [5]>([false, true, true, true, true])];
            tensor<bool, [5]> t_15_squeeze_mask_0 = const()[name = string("t_15_squeeze_mask_0"), val = tensor<bool, [5]>([true, false, false, false, false])];
            tensor<fp16, [16, 2, 1500, 32]> t_15_cast_fp16 = slice_by_index(begin = t_15_begin_0, end = t_15_end_0, end_mask = t_15_end_mask_0, squeeze_mask = t_15_squeeze_mask_0, x = qkv_7_cast_fp16)[name = string("t_15_cast_fp16")];
            tensor<int32, [5]> v_7_begin_0 = const()[name = string("v_7_begin_0"), val = tensor<int32, [5]>([2, 0, 0, 0, 0])];
            tensor<int32, [5]> v_7_end_0 = const()[name = string("v_7_end_0"), val = tensor<int32, [5]>([3, 16, 2, 1500, 32])];
            tensor<bool, [5]> v_7_end_mask_0 = const()[name = string("v_7_end_mask_0"), val = tensor<bool, [5]>([false, true, true, true, true])];
            tensor<bool, [5]> v_7_squeeze_mask_0 = const()[name = string("v_7_squeeze_mask_0"), val = tensor<bool, [5]>([true, false, false, false, false])];
            tensor<fp16, [16, 2, 1500, 32]> v_7_cast_fp16 = slice_by_index(begin = v_7_begin_0, end = v_7_end_0, end_mask = v_7_end_mask_0, squeeze_mask = v_7_squeeze_mask_0, x = qkv_7_cast_fp16)[name = string("v_7_cast_fp16")];
            tensor<fp16, [16, 2, 1500, 32]> var_534_cast_fp16 = mul(x = t_13_cast_fp16, y = var_278_to_fp16)[name = string("op_534_cast_fp16")];
            tensor<int32, [5]> concat_40 = const()[name = string("concat_40"), val = tensor<int32, [5]>([16, 2, 1500, -1, 2])];
            tensor<fp16, [16, 2, 1500, 16, 2]> x_21_cast_fp16 = reshape(shape = concat_40, x = t_13_cast_fp16)[name = string("x_21_cast_fp16")];
            tensor<int32, [5]> x1_13_begin_0 = const()[name = string("x1_13_begin_0"), val = tensor<int32, [5]>([0, 0, 0, 0, 0])];
            tensor<int32, [5]> x1_13_end_0 = const()[name = string("x1_13_end_0"), val = tensor<int32, [5]>([16, 2, 1500, 16, 1])];
            tensor<bool, [5]> x1_13_end_mask_0 = const()[name = string("x1_13_end_mask_0"), val = tensor<bool, [5]>([true, true, true, true, false])];
            tensor<bool, [5]> x1_13_squeeze_mask_0 = const()[name = string("x1_13_squeeze_mask_0"), val = tensor<bool, [5]>([false, false, false, false, true])];
            tensor<fp16, [16, 2, 1500, 16]> x1_13_cast_fp16 = slice_by_index(begin = x1_13_begin_0, end = x1_13_end_0, end_mask = x1_13_end_mask_0, squeeze_mask = x1_13_squeeze_mask_0, x = x_21_cast_fp16)[name = string("x1_13_cast_fp16")];
            tensor<int32, [5]> x2_13_begin_0 = const()[name = string("x2_13_begin_0"), val = tensor<int32, [5]>([0, 0, 0, 0, 1])];
            tensor<int32, [5]> x2_13_end_0 = const()[name = string("x2_13_end_0"), val = tensor<int32, [5]>([16, 2, 1500, 16, 2])];
            tensor<bool, [5]> x2_13_end_mask_0 = const()[name = string("x2_13_end_mask_0"), val = tensor<bool, [5]>([true, true, true, true, false])];
            tensor<bool, [5]> x2_13_squeeze_mask_0 = const()[name = string("x2_13_squeeze_mask_0"), val = tensor<bool, [5]>([false, false, false, false, true])];
            tensor<fp16, [16, 2, 1500, 16]> x2_13_cast_fp16 = slice_by_index(begin = x2_13_begin_0, end = x2_13_end_0, end_mask = x2_13_end_mask_0, squeeze_mask = x2_13_squeeze_mask_0, x = x_21_cast_fp16)[name = string("x2_13_cast_fp16")];
            fp16 const_35_promoted_to_fp16 = const()[name = string("const_35_promoted_to_fp16"), val = fp16(-0x1p+0)];
            tensor<fp16, [16, 2, 1500, 16]> var_539_cast_fp16 = mul(x = x2_13_cast_fp16, y = const_35_promoted_to_fp16)[name = string("op_539_cast_fp16")];
            int32 var_541_axis_0 = const()[name = string("op_541_axis_0"), val = int32(-1)];
            tensor<fp16, [16, 2, 1500, 16, 2]> var_541_cast_fp16 = stack(axis = var_541_axis_0, values = (var_539_cast_fp16, x1_13_cast_fp16))[name = string("op_541_cast_fp16")];
            tensor<int32, [4]> concat_41 = const()[name = string("concat_41"), val = tensor<int32, [4]>([16, 2, 1500, 32])];
            tensor<fp16, [16, 2, 1500, 32]> var_542_cast_fp16 = reshape(shape = concat_41, x = var_541_cast_fp16)[name = string("op_542_cast_fp16")];
            tensor<fp16, [16, 2, 1500, 32]> var_544_cast_fp16 = mul(x = var_542_cast_fp16, y = var_288_to_fp16)[name = string("op_544_cast_fp16")];
            tensor<fp16, [16, 2, 1500, 32]> q_7_cast_fp16 = add(x = var_534_cast_fp16, y = var_544_cast_fp16)[name = string("q_7_cast_fp16")];
            tensor<fp16, [16, 2, 1500, 32]> var_559_cast_fp16 = mul(x = t_15_cast_fp16, y = var_278_to_fp16)[name = string("op_559_cast_fp16")];
            tensor<int32, [5]> concat_44 = const()[name = string("concat_44"), val = tensor<int32, [5]>([16, 2, 1500, -1, 2])];
            tensor<fp16, [16, 2, 1500, 16, 2]> x_23_cast_fp16 = reshape(shape = concat_44, x = t_15_cast_fp16)[name = string("x_23_cast_fp16")];
            tensor<int32, [5]> x1_15_begin_0 = const()[name = string("x1_15_begin_0"), val = tensor<int32, [5]>([0, 0, 0, 0, 0])];
            tensor<int32, [5]> x1_15_end_0 = const()[name = string("x1_15_end_0"), val = tensor<int32, [5]>([16, 2, 1500, 16, 1])];
            tensor<bool, [5]> x1_15_end_mask_0 = const()[name = string("x1_15_end_mask_0"), val = tensor<bool, [5]>([true, true, true, true, false])];
            tensor<bool, [5]> x1_15_squeeze_mask_0 = const()[name = string("x1_15_squeeze_mask_0"), val = tensor<bool, [5]>([false, false, false, false, true])];
            tensor<fp16, [16, 2, 1500, 16]> x1_15_cast_fp16 = slice_by_index(begin = x1_15_begin_0, end = x1_15_end_0, end_mask = x1_15_end_mask_0, squeeze_mask = x1_15_squeeze_mask_0, x = x_23_cast_fp16)[name = string("x1_15_cast_fp16")];
            tensor<int32, [5]> x2_15_begin_0 = const()[name = string("x2_15_begin_0"), val = tensor<int32, [5]>([0, 0, 0, 0, 1])];
            tensor<int32, [5]> x2_15_end_0 = const()[name = string("x2_15_end_0"), val = tensor<int32, [5]>([16, 2, 1500, 16, 2])];
            tensor<bool, [5]> x2_15_end_mask_0 = const()[name = string("x2_15_end_mask_0"), val = tensor<bool, [5]>([true, true, true, true, false])];
            tensor<bool, [5]> x2_15_squeeze_mask_0 = const()[name = string("x2_15_squeeze_mask_0"), val = tensor<bool, [5]>([false, false, false, false, true])];
            tensor<fp16, [16, 2, 1500, 16]> x2_15_cast_fp16 = slice_by_index(begin = x2_15_begin_0, end = x2_15_end_0, end_mask = x2_15_end_mask_0, squeeze_mask = x2_15_squeeze_mask_0, x = x_23_cast_fp16)[name = string("x2_15_cast_fp16")];
            fp16 const_39_promoted_to_fp16 = const()[name = string("const_39_promoted_to_fp16"), val = fp16(-0x1p+0)];
            tensor<fp16, [16, 2, 1500, 16]> var_564_cast_fp16 = mul(x = x2_15_cast_fp16, y = const_39_promoted_to_fp16)[name = string("op_564_cast_fp16")];
            int32 var_566_axis_0 = const()[name = string("op_566_axis_0"), val = int32(-1)];
            tensor<fp16, [16, 2, 1500, 16, 2]> var_566_cast_fp16 = stack(axis = var_566_axis_0, values = (var_564_cast_fp16, x1_15_cast_fp16))[name = string("op_566_cast_fp16")];
            tensor<int32, [4]> concat_45 = const()[name = string("concat_45"), val = tensor<int32, [4]>([16, 2, 1500, 32])];
            tensor<fp16, [16, 2, 1500, 32]> var_567_cast_fp16 = reshape(shape = concat_45, x = var_566_cast_fp16)[name = string("op_567_cast_fp16")];
            tensor<fp16, [16, 2, 1500, 32]> var_569_cast_fp16 = mul(x = var_567_cast_fp16, y = var_288_to_fp16)[name = string("op_569_cast_fp16")];
            tensor<fp16, [16, 2, 1500, 32]> k_7_cast_fp16 = add(x = var_559_cast_fp16, y = var_569_cast_fp16)[name = string("k_7_cast_fp16")];
            tensor<fp16, [16, 2, 1500, 32]> out_13_cast_fp16 = scaled_dot_product_attention(key = k_7_cast_fp16, query = q_7_cast_fp16, value = v_7_cast_fp16)[name = string("out_13_cast_fp16")];
            tensor<fp16, [2, 64]> model_frontend_blocks_1_partial_attnT_to_gates_weight_to_fp16 = const()[name = string("model_frontend_blocks_1_partial_attnT_to_gates_weight_to_fp16"), val = tensor<fp16, [2, 64]>(BLOBFILE(path = string("@model_path/weights/weight.bin"), offset = uint64(2637504)))];
            tensor<fp16, [2]> model_frontend_blocks_1_partial_attnT_to_gates_bias_to_fp16 = const()[name = string("model_frontend_blocks_1_partial_attnT_to_gates_bias_to_fp16"), val = tensor<fp16, [2]>([0x1.898p-5, 0x1.fdcp-5])];
            tensor<fp16, [16, 1500, 2]> linear_16_cast_fp16 = linear(bias = model_frontend_blocks_1_partial_attnT_to_gates_bias_to_fp16, weight = model_frontend_blocks_1_partial_attnT_to_gates_weight_to_fp16, x = input_85_cast_fp16)[name = string("linear_16_cast_fp16")];
            tensor<int32, [3]> var_575 = const()[name = string("op_575"), val = tensor<int32, [3]>([0, 2, 1])];
            tensor<int32, [1]> gates_7_axes_0 = const()[name = string("gates_7_axes_0"), val = tensor<int32, [1]>([-1])];
            tensor<fp16, [16, 2, 1500]> var_576_cast_fp16 = transpose(perm = var_575, x = linear_16_cast_fp16)[name = string("transpose_79")];
            tensor<fp16, [16, 2, 1500, 1]> gates_7_cast_fp16 = expand_dims(axes = gates_7_axes_0, x = var_576_cast_fp16)[name = string("gates_7_cast_fp16")];
            tensor<fp16, [16, 2, 1500, 1]> var_578_cast_fp16 = sigmoid(x = gates_7_cast_fp16)[name = string("op_578_cast_fp16")];
            tensor<fp16, [16, 2, 1500, 32]> out_15_cast_fp16 = mul(x = out_13_cast_fp16, y = var_578_cast_fp16)[name = string("out_15_cast_fp16")];
            tensor<int32, [4]> var_580 = const()[name = string("op_580"), val = tensor<int32, [4]>([0, 2, 1, 3])];
            tensor<int32, [3]> concat_46 = const()[name = string("concat_46"), val = tensor<int32, [3]>([16, 1500, 64])];
            tensor<fp16, [16, 1500, 2, 32]> var_581_cast_fp16 = transpose(perm = var_580, x = out_15_cast_fp16)[name = string("transpose_78")];
            tensor<fp16, [16, 1500, 64]> input_87_cast_fp16 = reshape(shape = concat_46, x = var_581_cast_fp16)[name = string("input_87_cast_fp16")];
            tensor<fp16, [64, 64]> model_frontend_blocks_1_partial_attnT_to_out_0_weight_to_fp16 = const()[name = string("model_frontend_blocks_1_partial_attnT_to_out_0_weight_to_fp16"), val = tensor<fp16, [64, 64]>(BLOBFILE(path = string("@model_path/weights/weight.bin"), offset = uint64(2637824)))];
            tensor<fp16, [64]> linear_17_bias_0_to_fp16 = const()[name = string("linear_17_bias_0_to_fp16"), val = tensor<fp16, [64]>(BLOBFILE(path = string("@model_path/weights/weight.bin"), offset = uint64(2646080)))];
            tensor<fp16, [16, 1500, 64]> linear_17_cast_fp16 = linear(bias = linear_17_bias_0_to_fp16, weight = model_frontend_blocks_1_partial_attnT_to_out_0_weight_to_fp16, x = input_87_cast_fp16)[name = string("linear_17_cast_fp16")];
            tensor<fp16, [16, 1500, 64]> input_91_cast_fp16 = add(x = input_83_cast_fp16, y = linear_17_cast_fp16)[name = string("input_91_cast_fp16")];
            tensor<int32, [1]> var_593 = const()[name = string("op_593"), val = tensor<int32, [1]>([-1])];
            tensor<fp16, [16, 1500, 1]> var_594_cast_fp16 = reduce_l2_norm(axes = var_593, keep_dims = var_55, x = input_91_cast_fp16)[name = string("op_594_cast_fp16")];
            tensor<fp16, [16, 1500, 1]> var_595_cast_fp16 = maximum(x = var_594_cast_fp16, y = var_59_to_fp16)[name = string("op_595_cast_fp16")];
            tensor<int32, [3]> denom_15_reps_0 = const()[name = string("denom_15_reps_0"), val = tensor<int32, [3]>([1, 1, 64])];
            tensor<fp16, [16, 1500, 64]> denom_15_cast_fp16 = tile(reps = denom_15_reps_0, x = var_595_cast_fp16)[name = string("denom_15_cast_fp16")];
            tensor<fp16, [16, 1500, 64]> var_597_cast_fp16 = real_div(x = input_91_cast_fp16, y = denom_15_cast_fp16)[name = string("op_597_cast_fp16")];
            fp16 var_598_to_fp16 = const()[name = string("op_598_to_fp16"), val = fp16(0x1p+3)];
            tensor<fp16, [16, 1500, 64]> var_599_cast_fp16 = mul(x = var_597_cast_fp16, y = var_598_to_fp16)[name = string("op_599_cast_fp16")];
            tensor<fp16, [64]> model_frontend_blocks_1_partial_ffT_net_0_gamma_to_fp16 = const()[name = string("model_frontend_blocks_1_partial_ffT_net_0_gamma_to_fp16"), val = tensor<fp16, [64]>(BLOBFILE(path = string("@model_path/weights/weight.bin"), offset = uint64(2646272)))];
            tensor<fp16, [16, 1500, 64]> input_93_cast_fp16 = mul(x = var_599_cast_fp16, y = model_frontend_blocks_1_partial_ffT_net_0_gamma_to_fp16)[name = string("input_93_cast_fp16")];
            tensor<fp16, [256, 64]> model_frontend_blocks_1_partial_ffT_net_1_weight_to_fp16 = const()[name = string("model_frontend_blocks_1_partial_ffT_net_1_weight_to_fp16"), val = tensor<fp16, [256, 64]>(BLOBFILE(path = string("@model_path/weights/weight.bin"), offset = uint64(2646464)))];
            tensor<fp16, [256]> model_frontend_blocks_1_partial_ffT_net_1_bias_to_fp16 = const()[name = string("model_frontend_blocks_1_partial_ffT_net_1_bias_to_fp16"), val = tensor<fp16, [256]>(BLOBFILE(path = string("@model_path/weights/weight.bin"), offset = uint64(2679296)))];
            tensor<fp16, [16, 1500, 256]> linear_18_cast_fp16 = linear(bias = model_frontend_blocks_1_partial_ffT_net_1_bias_to_fp16, weight = model_frontend_blocks_1_partial_ffT_net_1_weight_to_fp16, x = input_93_cast_fp16)[name = string("linear_18_cast_fp16")];
            string input_97_mode_0 = const()[name = string("input_97_mode_0"), val = string("EXACT")];
            tensor<fp16, [16, 1500, 256]> input_97_cast_fp16 = gelu(mode = input_97_mode_0, x = linear_18_cast_fp16)[name = string("input_97_cast_fp16")];
            tensor<fp16, [64, 256]> model_frontend_blocks_1_partial_ffT_net_4_weight_to_fp16 = const()[name = string("model_frontend_blocks_1_partial_ffT_net_4_weight_to_fp16"), val = tensor<fp16, [64, 256]>(BLOBFILE(path = string("@model_path/weights/weight.bin"), offset = uint64(2679872)))];
            tensor<fp16, [64]> model_frontend_blocks_1_partial_ffT_net_4_bias_to_fp16 = const()[name = string("model_frontend_blocks_1_partial_ffT_net_4_bias_to_fp16"), val = tensor<fp16, [64]>(BLOBFILE(path = string("@model_path/weights/weight.bin"), offset = uint64(2712704)))];
            tensor<fp16, [16, 1500, 64]> linear_19_cast_fp16 = linear(bias = model_frontend_blocks_1_partial_ffT_net_4_bias_to_fp16, weight = model_frontend_blocks_1_partial_ffT_net_4_weight_to_fp16, x = input_97_cast_fp16)[name = string("linear_19_cast_fp16")];
            tensor<fp16, [16, 1500, 64]> var_610_cast_fp16 = add(x = input_91_cast_fp16, y = linear_19_cast_fp16)[name = string("op_610_cast_fp16")];
            tensor<int32, [4]> concat_47 = const()[name = string("concat_47"), val = tensor<int32, [4]>([1, -1, 1500, 64])];
            tensor<fp16, [1, 16, 1500, 64]> var_612_cast_fp16 = reshape(shape = concat_47, x = var_610_cast_fp16)[name = string("op_612_cast_fp16")];
            tensor<int32, [4]> var_613 = const()[name = string("op_613"), val = tensor<int32, [4]>([0, 3, 1, 2])];
            string input_105_pad_type_0 = const()[name = string("input_105_pad_type_0"), val = string("custom")];
            tensor<int32, [4]> input_105_pad_0 = const()[name = string("input_105_pad_0"), val = tensor<int32, [4]>([0, 0, 1, 1])];
            tensor<int32, [2]> input_105_strides_0 = const()[name = string("input_105_strides_0"), val = tensor<int32, [2]>([2, 1])];
            tensor<int32, [2]> input_105_dilations_0 = const()[name = string("input_105_dilations_0"), val = tensor<int32, [2]>([1, 1])];
            int32 input_105_groups_0 = const()[name = string("input_105_groups_0"), val = int32(1)];
            tensor<fp16, [128, 64, 2, 3]> const_108_to_fp16 = const()[name = string("const_108_to_fp16"), val = tensor<fp16, [128, 64, 2, 3]>(BLOBFILE(path = string("@model_path/weights/weight.bin"), offset = uint64(2712896)))];
            tensor<fp16, [128]> const_109_to_fp16 = const()[name = string("const_109_to_fp16"), val = tensor<fp16, [128]>(BLOBFILE(path = string("@model_path/weights/weight.bin"), offset = uint64(2811264)))];
            tensor<fp16, [1, 64, 16, 1500]> input_103_cast_fp16 = transpose(perm = var_613, x = var_612_cast_fp16)[name = string("transpose_77")];
            tensor<fp16, [1, 128, 8, 1500]> input_107_cast_fp16 = conv(bias = const_109_to_fp16, dilations = input_105_dilations_0, groups = input_105_groups_0, pad = input_105_pad_0, pad_type = input_105_pad_type_0, strides = input_105_strides_0, weight = const_108_to_fp16, x = input_103_cast_fp16)[name = string("input_107_cast_fp16")];
            string x_25_mode_0 = const()[name = string("x_25_mode_0"), val = string("EXACT")];
            tensor<fp16, [1, 128, 8, 1500]> x_25_cast_fp16 = gelu(mode = x_25_mode_0, x = input_107_cast_fp16)[name = string("x_25_cast_fp16")];
            tensor<int32, [4]> var_634 = const()[name = string("op_634"), val = tensor<int32, [4]>([0, 3, 2, 1])];
            tensor<int32, [3]> concat_48 = const()[name = string("concat_48"), val = tensor<int32, [3]>([1500, 8, 128])];
            tensor<fp16, [1, 1500, 8, 128]> var_635_cast_fp16 = transpose(perm = var_634, x = x_25_cast_fp16)[name = string("transpose_76")];
            tensor<fp16, [1500, 8, 128]> input_109_cast_fp16 = reshape(shape = concat_48, x = var_635_cast_fp16)[name = string("input_109_cast_fp16")];
            tensor<int32, [1]> var_642 = const()[name = string("op_642"), val = tensor<int32, [1]>([-1])];
            tensor<fp16, [1500, 8, 1]> var_643_cast_fp16 = reduce_l2_norm(axes = var_642, keep_dims = var_55, x = input_109_cast_fp16)[name = string("op_643_cast_fp16")];
            tensor<fp16, [1500, 8, 1]> var_644_cast_fp16 = maximum(x = var_643_cast_fp16, y = var_59_to_fp16)[name = string("op_644_cast_fp16")];
            tensor<int32, [3]> denom_17_reps_0 = const()[name = string("denom_17_reps_0"), val = tensor<int32, [3]>([1, 1, 128])];
            tensor<fp16, [1500, 8, 128]> denom_17_cast_fp16 = tile(reps = denom_17_reps_0, x = var_644_cast_fp16)[name = string("denom_17_cast_fp16")];
            tensor<fp16, [1500, 8, 128]> var_646_cast_fp16 = real_div(x = input_109_cast_fp16, y = denom_17_cast_fp16)[name = string("op_646_cast_fp16")];
            fp16 var_647_to_fp16 = const()[name = string("op_647_to_fp16"), val = fp16(0x1.6ap+3)];
            tensor<fp16, [1500, 8, 128]> var_648_cast_fp16 = mul(x = var_646_cast_fp16, y = var_647_to_fp16)[name = string("op_648_cast_fp16")];
            tensor<fp16, [128]> model_frontend_blocks_2_partial_attnF_norm_gamma_to_fp16 = const()[name = string("model_frontend_blocks_2_partial_attnF_norm_gamma_to_fp16"), val = tensor<fp16, [128]>(BLOBFILE(path = string("@model_path/weights/weight.bin"), offset = uint64(2811584)))];
            tensor<fp16, [1500, 8, 128]> input_111_cast_fp16 = mul(x = var_648_cast_fp16, y = model_frontend_blocks_2_partial_attnF_norm_gamma_to_fp16)[name = string("input_111_cast_fp16")];
            tensor<fp16, [384, 128]> model_frontend_blocks_2_partial_attnF_to_qkv_weight_to_fp16 = const()[name = string("model_frontend_blocks_2_partial_attnF_to_qkv_weight_to_fp16"), val = tensor<fp16, [384, 128]>(BLOBFILE(path = string("@model_path/weights/weight.bin"), offset = uint64(2811904)))];
            tensor<fp16, [384]> linear_20_bias_0_to_fp16 = const()[name = string("linear_20_bias_0_to_fp16"), val = tensor<fp16, [384]>(BLOBFILE(path = string("@model_path/weights/weight.bin"), offset = uint64(2910272)))];
            tensor<fp16, [1500, 8, 384]> linear_20_cast_fp16 = linear(bias = linear_20_bias_0_to_fp16, weight = model_frontend_blocks_2_partial_attnF_to_qkv_weight_to_fp16, x = input_111_cast_fp16)[name = string("linear_20_cast_fp16")];
            tensor<int32, [5]> concat_49 = const()[name = string("concat_49"), val = tensor<int32, [5]>([1500, 8, 3, 4, -1])];
            tensor<fp16, [1500, 8, 3, 4, 32]> var_653_cast_fp16 = reshape(shape = concat_49, x = linear_20_cast_fp16)[name = string("op_653_cast_fp16")];
            tensor<int32, [5]> var_654 = const()[name = string("op_654"), val = tensor<int32, [5]>([2, 0, 3, 1, 4])];
            tensor<int32, [5]> t_17_begin_0 = const()[name = string("t_17_begin_0"), val = tensor<int32, [5]>([0, 0, 0, 0, 0])];
            tensor<int32, [5]> t_17_end_0 = const()[name = string("t_17_end_0"), val = tensor<int32, [5]>([1, 1500, 4, 8, 32])];
            tensor<bool, [5]> t_17_end_mask_0 = const()[name = string("t_17_end_mask_0"), val = tensor<bool, [5]>([false, true, true, true, true])];
            tensor<bool, [5]> t_17_squeeze_mask_0 = const()[name = string("t_17_squeeze_mask_0"), val = tensor<bool, [5]>([true, false, false, false, false])];
            tensor<fp16, [3, 1500, 4, 8, 32]> qkv_9_cast_fp16 = transpose(perm = var_654, x = var_653_cast_fp16)[name = string("transpose_75")];
            tensor<fp16, [1500, 4, 8, 32]> t_17_cast_fp16 = slice_by_index(begin = t_17_begin_0, end = t_17_end_0, end_mask = t_17_end_mask_0, squeeze_mask = t_17_squeeze_mask_0, x = qkv_9_cast_fp16)[name = string("t_17_cast_fp16")];
            tensor<int32, [5]> t_19_begin_0 = const()[name = string("t_19_begin_0"), val = tensor<int32, [5]>([1, 0, 0, 0, 0])];
            tensor<int32, [5]> t_19_end_0 = const()[name = string("t_19_end_0"), val = tensor<int32, [5]>([2, 1500, 4, 8, 32])];
            tensor<bool, [5]> t_19_end_mask_0 = const()[name = string("t_19_end_mask_0"), val = tensor<bool, [5]>([false, true, true, true, true])];
            tensor<bool, [5]> t_19_squeeze_mask_0 = const()[name = string("t_19_squeeze_mask_0"), val = tensor<bool, [5]>([true, false, false, false, false])];
            tensor<fp16, [1500, 4, 8, 32]> t_19_cast_fp16 = slice_by_index(begin = t_19_begin_0, end = t_19_end_0, end_mask = t_19_end_mask_0, squeeze_mask = t_19_squeeze_mask_0, x = qkv_9_cast_fp16)[name = string("t_19_cast_fp16")];
            tensor<int32, [5]> v_9_begin_0 = const()[name = string("v_9_begin_0"), val = tensor<int32, [5]>([2, 0, 0, 0, 0])];
            tensor<int32, [5]> v_9_end_0 = const()[name = string("v_9_end_0"), val = tensor<int32, [5]>([3, 1500, 4, 8, 32])];
            tensor<bool, [5]> v_9_end_mask_0 = const()[name = string("v_9_end_mask_0"), val = tensor<bool, [5]>([false, true, true, true, true])];
            tensor<bool, [5]> v_9_squeeze_mask_0 = const()[name = string("v_9_squeeze_mask_0"), val = tensor<bool, [5]>([true, false, false, false, false])];
            tensor<fp16, [1500, 4, 8, 32]> v_9_cast_fp16 = slice_by_index(begin = v_9_begin_0, end = v_9_end_0, end_mask = v_9_end_mask_0, squeeze_mask = v_9_squeeze_mask_0, x = qkv_9_cast_fp16)[name = string("v_9_cast_fp16")];
            tensor<fp16, [8, 32]> var_671_to_fp16 = const()[name = string("op_671_to_fp16"), val = tensor<fp16, [8, 32]>(BLOBFILE(path = string("@model_path/weights/weight.bin"), offset = uint64(2911104)))];
            tensor<fp16, [1500, 4, 8, 32]> var_672_cast_fp16 = mul(x = t_17_cast_fp16, y = var_671_to_fp16)[name = string("op_672_cast_fp16")];
            tensor<int32, [5]> concat_52 = const()[name = string("concat_52"), val = tensor<int32, [5]>([1500, 4, 8, -1, 2])];
            tensor<fp16, [1500, 4, 8, 16, 2]> x_27_cast_fp16 = reshape(shape = concat_52, x = t_17_cast_fp16)[name = string("x_27_cast_fp16")];
            tensor<int32, [5]> x1_17_begin_0 = const()[name = string("x1_17_begin_0"), val = tensor<int32, [5]>([0, 0, 0, 0, 0])];
            tensor<int32, [5]> x1_17_end_0 = const()[name = string("x1_17_end_0"), val = tensor<int32, [5]>([1500, 4, 8, 16, 1])];
            tensor<bool, [5]> x1_17_end_mask_0 = const()[name = string("x1_17_end_mask_0"), val = tensor<bool, [5]>([true, true, true, true, false])];
            tensor<bool, [5]> x1_17_squeeze_mask_0 = const()[name = string("x1_17_squeeze_mask_0"), val = tensor<bool, [5]>([false, false, false, false, true])];
            tensor<fp16, [1500, 4, 8, 16]> x1_17_cast_fp16 = slice_by_index(begin = x1_17_begin_0, end = x1_17_end_0, end_mask = x1_17_end_mask_0, squeeze_mask = x1_17_squeeze_mask_0, x = x_27_cast_fp16)[name = string("x1_17_cast_fp16")];
            tensor<int32, [5]> x2_17_begin_0 = const()[name = string("x2_17_begin_0"), val = tensor<int32, [5]>([0, 0, 0, 0, 1])];
            tensor<int32, [5]> x2_17_end_0 = const()[name = string("x2_17_end_0"), val = tensor<int32, [5]>([1500, 4, 8, 16, 2])];
            tensor<bool, [5]> x2_17_end_mask_0 = const()[name = string("x2_17_end_mask_0"), val = tensor<bool, [5]>([true, true, true, true, false])];
            tensor<bool, [5]> x2_17_squeeze_mask_0 = const()[name = string("x2_17_squeeze_mask_0"), val = tensor<bool, [5]>([false, false, false, false, true])];
            tensor<fp16, [1500, 4, 8, 16]> x2_17_cast_fp16 = slice_by_index(begin = x2_17_begin_0, end = x2_17_end_0, end_mask = x2_17_end_mask_0, squeeze_mask = x2_17_squeeze_mask_0, x = x_27_cast_fp16)[name = string("x2_17_cast_fp16")];
            fp16 const_43_promoted_to_fp16 = const()[name = string("const_43_promoted_to_fp16"), val = fp16(-0x1p+0)];
            tensor<fp16, [1500, 4, 8, 16]> var_677_cast_fp16 = mul(x = x2_17_cast_fp16, y = const_43_promoted_to_fp16)[name = string("op_677_cast_fp16")];
            int32 var_679_axis_0 = const()[name = string("op_679_axis_0"), val = int32(-1)];
            tensor<fp16, [1500, 4, 8, 16, 2]> var_679_cast_fp16 = stack(axis = var_679_axis_0, values = (var_677_cast_fp16, x1_17_cast_fp16))[name = string("op_679_cast_fp16")];
            tensor<int32, [4]> concat_53 = const()[name = string("concat_53"), val = tensor<int32, [4]>([1500, 4, 8, 32])];
            tensor<fp16, [1500, 4, 8, 32]> var_680_cast_fp16 = reshape(shape = concat_53, x = var_679_cast_fp16)[name = string("op_680_cast_fp16")];
            tensor<fp16, [8, 32]> var_681_to_fp16 = const()[name = string("op_681_to_fp16"), val = tensor<fp16, [8, 32]>(BLOBFILE(path = string("@model_path/weights/weight.bin"), offset = uint64(2911680)))];
            tensor<fp16, [1500, 4, 8, 32]> var_682_cast_fp16 = mul(x = var_680_cast_fp16, y = var_681_to_fp16)[name = string("op_682_cast_fp16")];
            tensor<fp16, [1500, 4, 8, 32]> q_9_cast_fp16 = add(x = var_672_cast_fp16, y = var_682_cast_fp16)[name = string("q_9_cast_fp16")];
            tensor<fp16, [1500, 4, 8, 32]> var_697_cast_fp16 = mul(x = t_19_cast_fp16, y = var_671_to_fp16)[name = string("op_697_cast_fp16")];
            tensor<int32, [5]> concat_56 = const()[name = string("concat_56"), val = tensor<int32, [5]>([1500, 4, 8, -1, 2])];
            tensor<fp16, [1500, 4, 8, 16, 2]> x_29_cast_fp16 = reshape(shape = concat_56, x = t_19_cast_fp16)[name = string("x_29_cast_fp16")];
            tensor<int32, [5]> x1_19_begin_0 = const()[name = string("x1_19_begin_0"), val = tensor<int32, [5]>([0, 0, 0, 0, 0])];
            tensor<int32, [5]> x1_19_end_0 = const()[name = string("x1_19_end_0"), val = tensor<int32, [5]>([1500, 4, 8, 16, 1])];
            tensor<bool, [5]> x1_19_end_mask_0 = const()[name = string("x1_19_end_mask_0"), val = tensor<bool, [5]>([true, true, true, true, false])];
            tensor<bool, [5]> x1_19_squeeze_mask_0 = const()[name = string("x1_19_squeeze_mask_0"), val = tensor<bool, [5]>([false, false, false, false, true])];
            tensor<fp16, [1500, 4, 8, 16]> x1_19_cast_fp16 = slice_by_index(begin = x1_19_begin_0, end = x1_19_end_0, end_mask = x1_19_end_mask_0, squeeze_mask = x1_19_squeeze_mask_0, x = x_29_cast_fp16)[name = string("x1_19_cast_fp16")];
            tensor<int32, [5]> x2_19_begin_0 = const()[name = string("x2_19_begin_0"), val = tensor<int32, [5]>([0, 0, 0, 0, 1])];
            tensor<int32, [5]> x2_19_end_0 = const()[name = string("x2_19_end_0"), val = tensor<int32, [5]>([1500, 4, 8, 16, 2])];
            tensor<bool, [5]> x2_19_end_mask_0 = const()[name = string("x2_19_end_mask_0"), val = tensor<bool, [5]>([true, true, true, true, false])];
            tensor<bool, [5]> x2_19_squeeze_mask_0 = const()[name = string("x2_19_squeeze_mask_0"), val = tensor<bool, [5]>([false, false, false, false, true])];
            tensor<fp16, [1500, 4, 8, 16]> x2_19_cast_fp16 = slice_by_index(begin = x2_19_begin_0, end = x2_19_end_0, end_mask = x2_19_end_mask_0, squeeze_mask = x2_19_squeeze_mask_0, x = x_29_cast_fp16)[name = string("x2_19_cast_fp16")];
            fp16 const_47_promoted_to_fp16 = const()[name = string("const_47_promoted_to_fp16"), val = fp16(-0x1p+0)];
            tensor<fp16, [1500, 4, 8, 16]> var_702_cast_fp16 = mul(x = x2_19_cast_fp16, y = const_47_promoted_to_fp16)[name = string("op_702_cast_fp16")];
            int32 var_704_axis_0 = const()[name = string("op_704_axis_0"), val = int32(-1)];
            tensor<fp16, [1500, 4, 8, 16, 2]> var_704_cast_fp16 = stack(axis = var_704_axis_0, values = (var_702_cast_fp16, x1_19_cast_fp16))[name = string("op_704_cast_fp16")];
            tensor<int32, [4]> concat_57 = const()[name = string("concat_57"), val = tensor<int32, [4]>([1500, 4, 8, 32])];
            tensor<fp16, [1500, 4, 8, 32]> var_705_cast_fp16 = reshape(shape = concat_57, x = var_704_cast_fp16)[name = string("op_705_cast_fp16")];
            tensor<fp16, [1500, 4, 8, 32]> var_707_cast_fp16 = mul(x = var_705_cast_fp16, y = var_681_to_fp16)[name = string("op_707_cast_fp16")];
            tensor<fp16, [1500, 4, 8, 32]> k_9_cast_fp16 = add(x = var_697_cast_fp16, y = var_707_cast_fp16)[name = string("k_9_cast_fp16")];
            tensor<fp16, [1500, 4, 8, 32]> out_17_cast_fp16 = scaled_dot_product_attention(key = k_9_cast_fp16, query = q_9_cast_fp16, value = v_9_cast_fp16)[name = string("out_17_cast_fp16")];
            tensor<fp16, [4, 128]> model_frontend_blocks_2_partial_attnF_to_gates_weight_to_fp16 = const()[name = string("model_frontend_blocks_2_partial_attnF_to_gates_weight_to_fp16"), val = tensor<fp16, [4, 128]>(BLOBFILE(path = string("@model_path/weights/weight.bin"), offset = uint64(2912256)))];
            tensor<fp16, [4]> model_frontend_blocks_2_partial_attnF_to_gates_bias_to_fp16 = const()[name = string("model_frontend_blocks_2_partial_attnF_to_gates_bias_to_fp16"), val = tensor<fp16, [4]>([-0x1.1c8p-4, -0x1.1c4p-4, -0x1.8f4p-5, -0x1.cb8p-5])];
            tensor<fp16, [1500, 8, 4]> linear_21_cast_fp16 = linear(bias = model_frontend_blocks_2_partial_attnF_to_gates_bias_to_fp16, weight = model_frontend_blocks_2_partial_attnF_to_gates_weight_to_fp16, x = input_111_cast_fp16)[name = string("linear_21_cast_fp16")];
            tensor<int32, [3]> var_713 = const()[name = string("op_713"), val = tensor<int32, [3]>([0, 2, 1])];
            tensor<int32, [1]> gates_9_axes_0 = const()[name = string("gates_9_axes_0"), val = tensor<int32, [1]>([-1])];
            tensor<fp16, [1500, 4, 8]> var_714_cast_fp16 = transpose(perm = var_713, x = linear_21_cast_fp16)[name = string("transpose_74")];
            tensor<fp16, [1500, 4, 8, 1]> gates_9_cast_fp16 = expand_dims(axes = gates_9_axes_0, x = var_714_cast_fp16)[name = string("gates_9_cast_fp16")];
            tensor<fp16, [1500, 4, 8, 1]> var_716_cast_fp16 = sigmoid(x = gates_9_cast_fp16)[name = string("op_716_cast_fp16")];
            tensor<fp16, [1500, 4, 8, 32]> out_19_cast_fp16 = mul(x = out_17_cast_fp16, y = var_716_cast_fp16)[name = string("out_19_cast_fp16")];
            tensor<int32, [4]> var_718 = const()[name = string("op_718"), val = tensor<int32, [4]>([0, 2, 1, 3])];
            tensor<int32, [3]> concat_58 = const()[name = string("concat_58"), val = tensor<int32, [3]>([1500, 8, 128])];
            tensor<fp16, [1500, 8, 4, 32]> var_719_cast_fp16 = transpose(perm = var_718, x = out_19_cast_fp16)[name = string("transpose_73")];
            tensor<fp16, [1500, 8, 128]> input_113_cast_fp16 = reshape(shape = concat_58, x = var_719_cast_fp16)[name = string("input_113_cast_fp16")];
            tensor<fp16, [128, 128]> model_frontend_blocks_2_partial_attnF_to_out_0_weight_to_fp16 = const()[name = string("model_frontend_blocks_2_partial_attnF_to_out_0_weight_to_fp16"), val = tensor<fp16, [128, 128]>(BLOBFILE(path = string("@model_path/weights/weight.bin"), offset = uint64(2913344)))];
            tensor<fp16, [1500, 8, 128]> linear_22_cast_fp16 = linear(bias = var_40_bias_0_to_fp16, weight = model_frontend_blocks_2_partial_attnF_to_out_0_weight_to_fp16, x = input_113_cast_fp16)[name = string("linear_22_cast_fp16")];
            tensor<fp16, [1500, 8, 128]> input_117_cast_fp16 = add(x = input_109_cast_fp16, y = linear_22_cast_fp16)[name = string("input_117_cast_fp16")];
            tensor<int32, [1]> var_731 = const()[name = string("op_731"), val = tensor<int32, [1]>([-1])];
            tensor<fp16, [1500, 8, 1]> var_732_cast_fp16 = reduce_l2_norm(axes = var_731, keep_dims = var_55, x = input_117_cast_fp16)[name = string("op_732_cast_fp16")];
            tensor<fp16, [1500, 8, 1]> var_733_cast_fp16 = maximum(x = var_732_cast_fp16, y = var_59_to_fp16)[name = string("op_733_cast_fp16")];
            tensor<int32, [3]> denom_19_reps_0 = const()[name = string("denom_19_reps_0"), val = tensor<int32, [3]>([1, 1, 128])];
            tensor<fp16, [1500, 8, 128]> denom_19_cast_fp16 = tile(reps = denom_19_reps_0, x = var_733_cast_fp16)[name = string("denom_19_cast_fp16")];
            tensor<fp16, [1500, 8, 128]> var_735_cast_fp16 = real_div(x = input_117_cast_fp16, y = denom_19_cast_fp16)[name = string("op_735_cast_fp16")];
            fp16 var_736_to_fp16 = const()[name = string("op_736_to_fp16"), val = fp16(0x1.6ap+3)];
            tensor<fp16, [1500, 8, 128]> var_737_cast_fp16 = mul(x = var_735_cast_fp16, y = var_736_to_fp16)[name = string("op_737_cast_fp16")];
            tensor<fp16, [128]> model_frontend_blocks_2_partial_ffF_net_0_gamma_to_fp16 = const()[name = string("model_frontend_blocks_2_partial_ffF_net_0_gamma_to_fp16"), val = tensor<fp16, [128]>(BLOBFILE(path = string("@model_path/weights/weight.bin"), offset = uint64(2946176)))];
            tensor<fp16, [1500, 8, 128]> input_119_cast_fp16 = mul(x = var_737_cast_fp16, y = model_frontend_blocks_2_partial_ffF_net_0_gamma_to_fp16)[name = string("input_119_cast_fp16")];
            tensor<fp16, [512, 128]> model_frontend_blocks_2_partial_ffF_net_1_weight_to_fp16 = const()[name = string("model_frontend_blocks_2_partial_ffF_net_1_weight_to_fp16"), val = tensor<fp16, [512, 128]>(BLOBFILE(path = string("@model_path/weights/weight.bin"), offset = uint64(2946496)))];
            tensor<fp16, [512]> model_frontend_blocks_2_partial_ffF_net_1_bias_to_fp16 = const()[name = string("model_frontend_blocks_2_partial_ffF_net_1_bias_to_fp16"), val = tensor<fp16, [512]>(BLOBFILE(path = string("@model_path/weights/weight.bin"), offset = uint64(3077632)))];
            tensor<fp16, [1500, 8, 512]> linear_23_cast_fp16 = linear(bias = model_frontend_blocks_2_partial_ffF_net_1_bias_to_fp16, weight = model_frontend_blocks_2_partial_ffF_net_1_weight_to_fp16, x = input_119_cast_fp16)[name = string("linear_23_cast_fp16")];
            string input_123_mode_0 = const()[name = string("input_123_mode_0"), val = string("EXACT")];
            tensor<fp16, [1500, 8, 512]> input_123_cast_fp16 = gelu(mode = input_123_mode_0, x = linear_23_cast_fp16)[name = string("input_123_cast_fp16")];
            tensor<fp16, [128, 512]> model_frontend_blocks_2_partial_ffF_net_4_weight_to_fp16 = const()[name = string("model_frontend_blocks_2_partial_ffF_net_4_weight_to_fp16"), val = tensor<fp16, [128, 512]>(BLOBFILE(path = string("@model_path/weights/weight.bin"), offset = uint64(3078720)))];
            tensor<fp16, [128]> model_frontend_blocks_2_partial_ffF_net_4_bias_to_fp16 = const()[name = string("model_frontend_blocks_2_partial_ffF_net_4_bias_to_fp16"), val = tensor<fp16, [128]>(BLOBFILE(path = string("@model_path/weights/weight.bin"), offset = uint64(3209856)))];
            tensor<fp16, [1500, 8, 128]> linear_24_cast_fp16 = linear(bias = model_frontend_blocks_2_partial_ffF_net_4_bias_to_fp16, weight = model_frontend_blocks_2_partial_ffF_net_4_weight_to_fp16, x = input_123_cast_fp16)[name = string("linear_24_cast_fp16")];
            tensor<fp16, [1500, 8, 128]> var_748_cast_fp16 = add(x = input_117_cast_fp16, y = linear_24_cast_fp16)[name = string("op_748_cast_fp16")];
            tensor<int32, [4]> concat_59 = const()[name = string("concat_59"), val = tensor<int32, [4]>([1, -1, 8, 128])];
            tensor<fp16, [1, 1500, 8, 128]> var_750_cast_fp16 = reshape(shape = concat_59, x = var_748_cast_fp16)[name = string("op_750_cast_fp16")];
            tensor<int32, [4]> var_751 = const()[name = string("op_751"), val = tensor<int32, [4]>([0, 2, 1, 3])];
            tensor<int32, [3]> concat_60 = const()[name = string("concat_60"), val = tensor<int32, [3]>([8, 1500, 128])];
            tensor<fp16, [1, 8, 1500, 128]> var_752_cast_fp16 = transpose(perm = var_751, x = var_750_cast_fp16)[name = string("transpose_72")];
            tensor<fp16, [8, 1500, 128]> input_129_cast_fp16 = reshape(shape = concat_60, x = var_752_cast_fp16)[name = string("input_129_cast_fp16")];
            tensor<int32, [1]> var_759 = const()[name = string("op_759"), val = tensor<int32, [1]>([-1])];
            tensor<fp16, [8, 1500, 1]> var_760_cast_fp16 = reduce_l2_norm(axes = var_759, keep_dims = var_55, x = input_129_cast_fp16)[name = string("op_760_cast_fp16")];
            tensor<fp16, [8, 1500, 1]> var_761_cast_fp16 = maximum(x = var_760_cast_fp16, y = var_59_to_fp16)[name = string("op_761_cast_fp16")];
            tensor<int32, [3]> denom_21_reps_0 = const()[name = string("denom_21_reps_0"), val = tensor<int32, [3]>([1, 1, 128])];
            tensor<fp16, [8, 1500, 128]> denom_21_cast_fp16 = tile(reps = denom_21_reps_0, x = var_761_cast_fp16)[name = string("denom_21_cast_fp16")];
            tensor<fp16, [8, 1500, 128]> var_763_cast_fp16 = real_div(x = input_129_cast_fp16, y = denom_21_cast_fp16)[name = string("op_763_cast_fp16")];
            fp16 var_764_to_fp16 = const()[name = string("op_764_to_fp16"), val = fp16(0x1.6ap+3)];
            tensor<fp16, [8, 1500, 128]> var_765_cast_fp16 = mul(x = var_763_cast_fp16, y = var_764_to_fp16)[name = string("op_765_cast_fp16")];
            tensor<fp16, [128]> model_frontend_blocks_2_partial_attnT_norm_gamma_to_fp16 = const()[name = string("model_frontend_blocks_2_partial_attnT_norm_gamma_to_fp16"), val = tensor<fp16, [128]>(BLOBFILE(path = string("@model_path/weights/weight.bin"), offset = uint64(3210176)))];
            tensor<fp16, [8, 1500, 128]> input_131_cast_fp16 = mul(x = var_765_cast_fp16, y = model_frontend_blocks_2_partial_attnT_norm_gamma_to_fp16)[name = string("input_131_cast_fp16")];
            tensor<fp16, [384, 128]> model_frontend_blocks_2_partial_attnT_to_qkv_weight_to_fp16 = const()[name = string("model_frontend_blocks_2_partial_attnT_to_qkv_weight_to_fp16"), val = tensor<fp16, [384, 128]>(BLOBFILE(path = string("@model_path/weights/weight.bin"), offset = uint64(3210496)))];
            tensor<fp16, [8, 1500, 384]> linear_25_cast_fp16 = linear(bias = linear_20_bias_0_to_fp16, weight = model_frontend_blocks_2_partial_attnT_to_qkv_weight_to_fp16, x = input_131_cast_fp16)[name = string("linear_25_cast_fp16")];
            tensor<int32, [5]> concat_61 = const()[name = string("concat_61"), val = tensor<int32, [5]>([8, 1500, 3, 4, -1])];
            tensor<fp16, [8, 1500, 3, 4, 32]> var_770_cast_fp16 = reshape(shape = concat_61, x = linear_25_cast_fp16)[name = string("op_770_cast_fp16")];
            tensor<int32, [5]> var_771 = const()[name = string("op_771"), val = tensor<int32, [5]>([2, 0, 3, 1, 4])];
            tensor<int32, [5]> t_21_begin_0 = const()[name = string("t_21_begin_0"), val = tensor<int32, [5]>([0, 0, 0, 0, 0])];
            tensor<int32, [5]> t_21_end_0 = const()[name = string("t_21_end_0"), val = tensor<int32, [5]>([1, 8, 4, 1500, 32])];
            tensor<bool, [5]> t_21_end_mask_0 = const()[name = string("t_21_end_mask_0"), val = tensor<bool, [5]>([false, true, true, true, true])];
            tensor<bool, [5]> t_21_squeeze_mask_0 = const()[name = string("t_21_squeeze_mask_0"), val = tensor<bool, [5]>([true, false, false, false, false])];
            tensor<fp16, [3, 8, 4, 1500, 32]> qkv_11_cast_fp16 = transpose(perm = var_771, x = var_770_cast_fp16)[name = string("transpose_71")];
            tensor<fp16, [8, 4, 1500, 32]> t_21_cast_fp16 = slice_by_index(begin = t_21_begin_0, end = t_21_end_0, end_mask = t_21_end_mask_0, squeeze_mask = t_21_squeeze_mask_0, x = qkv_11_cast_fp16)[name = string("t_21_cast_fp16")];
            tensor<int32, [5]> t_23_begin_0 = const()[name = string("t_23_begin_0"), val = tensor<int32, [5]>([1, 0, 0, 0, 0])];
            tensor<int32, [5]> t_23_end_0 = const()[name = string("t_23_end_0"), val = tensor<int32, [5]>([2, 8, 4, 1500, 32])];
            tensor<bool, [5]> t_23_end_mask_0 = const()[name = string("t_23_end_mask_0"), val = tensor<bool, [5]>([false, true, true, true, true])];
            tensor<bool, [5]> t_23_squeeze_mask_0 = const()[name = string("t_23_squeeze_mask_0"), val = tensor<bool, [5]>([true, false, false, false, false])];
            tensor<fp16, [8, 4, 1500, 32]> t_23_cast_fp16 = slice_by_index(begin = t_23_begin_0, end = t_23_end_0, end_mask = t_23_end_mask_0, squeeze_mask = t_23_squeeze_mask_0, x = qkv_11_cast_fp16)[name = string("t_23_cast_fp16")];
            tensor<int32, [5]> v_11_begin_0 = const()[name = string("v_11_begin_0"), val = tensor<int32, [5]>([2, 0, 0, 0, 0])];
            tensor<int32, [5]> v_11_end_0 = const()[name = string("v_11_end_0"), val = tensor<int32, [5]>([3, 8, 4, 1500, 32])];
            tensor<bool, [5]> v_11_end_mask_0 = const()[name = string("v_11_end_mask_0"), val = tensor<bool, [5]>([false, true, true, true, true])];
            tensor<bool, [5]> v_11_squeeze_mask_0 = const()[name = string("v_11_squeeze_mask_0"), val = tensor<bool, [5]>([true, false, false, false, false])];
            tensor<fp16, [8, 4, 1500, 32]> v_11_cast_fp16 = slice_by_index(begin = v_11_begin_0, end = v_11_end_0, end_mask = v_11_end_mask_0, squeeze_mask = v_11_squeeze_mask_0, x = qkv_11_cast_fp16)[name = string("v_11_cast_fp16")];
            tensor<fp16, [8, 4, 1500, 32]> var_789_cast_fp16 = mul(x = t_21_cast_fp16, y = var_278_to_fp16)[name = string("op_789_cast_fp16")];
            tensor<int32, [5]> concat_64 = const()[name = string("concat_64"), val = tensor<int32, [5]>([8, 4, 1500, -1, 2])];
            tensor<fp16, [8, 4, 1500, 16, 2]> x_31_cast_fp16 = reshape(shape = concat_64, x = t_21_cast_fp16)[name = string("x_31_cast_fp16")];
            tensor<int32, [5]> x1_21_begin_0 = const()[name = string("x1_21_begin_0"), val = tensor<int32, [5]>([0, 0, 0, 0, 0])];
            tensor<int32, [5]> x1_21_end_0 = const()[name = string("x1_21_end_0"), val = tensor<int32, [5]>([8, 4, 1500, 16, 1])];
            tensor<bool, [5]> x1_21_end_mask_0 = const()[name = string("x1_21_end_mask_0"), val = tensor<bool, [5]>([true, true, true, true, false])];
            tensor<bool, [5]> x1_21_squeeze_mask_0 = const()[name = string("x1_21_squeeze_mask_0"), val = tensor<bool, [5]>([false, false, false, false, true])];
            tensor<fp16, [8, 4, 1500, 16]> x1_21_cast_fp16 = slice_by_index(begin = x1_21_begin_0, end = x1_21_end_0, end_mask = x1_21_end_mask_0, squeeze_mask = x1_21_squeeze_mask_0, x = x_31_cast_fp16)[name = string("x1_21_cast_fp16")];
            tensor<int32, [5]> x2_21_begin_0 = const()[name = string("x2_21_begin_0"), val = tensor<int32, [5]>([0, 0, 0, 0, 1])];
            tensor<int32, [5]> x2_21_end_0 = const()[name = string("x2_21_end_0"), val = tensor<int32, [5]>([8, 4, 1500, 16, 2])];
            tensor<bool, [5]> x2_21_end_mask_0 = const()[name = string("x2_21_end_mask_0"), val = tensor<bool, [5]>([true, true, true, true, false])];
            tensor<bool, [5]> x2_21_squeeze_mask_0 = const()[name = string("x2_21_squeeze_mask_0"), val = tensor<bool, [5]>([false, false, false, false, true])];
            tensor<fp16, [8, 4, 1500, 16]> x2_21_cast_fp16 = slice_by_index(begin = x2_21_begin_0, end = x2_21_end_0, end_mask = x2_21_end_mask_0, squeeze_mask = x2_21_squeeze_mask_0, x = x_31_cast_fp16)[name = string("x2_21_cast_fp16")];
            fp16 const_51_promoted_to_fp16 = const()[name = string("const_51_promoted_to_fp16"), val = fp16(-0x1p+0)];
            tensor<fp16, [8, 4, 1500, 16]> var_794_cast_fp16 = mul(x = x2_21_cast_fp16, y = const_51_promoted_to_fp16)[name = string("op_794_cast_fp16")];
            int32 var_796_axis_0 = const()[name = string("op_796_axis_0"), val = int32(-1)];
            tensor<fp16, [8, 4, 1500, 16, 2]> var_796_cast_fp16 = stack(axis = var_796_axis_0, values = (var_794_cast_fp16, x1_21_cast_fp16))[name = string("op_796_cast_fp16")];
            tensor<int32, [4]> concat_65 = const()[name = string("concat_65"), val = tensor<int32, [4]>([8, 4, 1500, 32])];
            tensor<fp16, [8, 4, 1500, 32]> var_797_cast_fp16 = reshape(shape = concat_65, x = var_796_cast_fp16)[name = string("op_797_cast_fp16")];
            tensor<fp16, [8, 4, 1500, 32]> var_799_cast_fp16 = mul(x = var_797_cast_fp16, y = var_288_to_fp16)[name = string("op_799_cast_fp16")];
            tensor<fp16, [8, 4, 1500, 32]> q_11_cast_fp16 = add(x = var_789_cast_fp16, y = var_799_cast_fp16)[name = string("q_11_cast_fp16")];
            tensor<fp16, [8, 4, 1500, 32]> var_814_cast_fp16 = mul(x = t_23_cast_fp16, y = var_278_to_fp16)[name = string("op_814_cast_fp16")];
            tensor<int32, [5]> concat_68 = const()[name = string("concat_68"), val = tensor<int32, [5]>([8, 4, 1500, -1, 2])];
            tensor<fp16, [8, 4, 1500, 16, 2]> x_33_cast_fp16 = reshape(shape = concat_68, x = t_23_cast_fp16)[name = string("x_33_cast_fp16")];
            tensor<int32, [5]> x1_23_begin_0 = const()[name = string("x1_23_begin_0"), val = tensor<int32, [5]>([0, 0, 0, 0, 0])];
            tensor<int32, [5]> x1_23_end_0 = const()[name = string("x1_23_end_0"), val = tensor<int32, [5]>([8, 4, 1500, 16, 1])];
            tensor<bool, [5]> x1_23_end_mask_0 = const()[name = string("x1_23_end_mask_0"), val = tensor<bool, [5]>([true, true, true, true, false])];
            tensor<bool, [5]> x1_23_squeeze_mask_0 = const()[name = string("x1_23_squeeze_mask_0"), val = tensor<bool, [5]>([false, false, false, false, true])];
            tensor<fp16, [8, 4, 1500, 16]> x1_23_cast_fp16 = slice_by_index(begin = x1_23_begin_0, end = x1_23_end_0, end_mask = x1_23_end_mask_0, squeeze_mask = x1_23_squeeze_mask_0, x = x_33_cast_fp16)[name = string("x1_23_cast_fp16")];
            tensor<int32, [5]> x2_23_begin_0 = const()[name = string("x2_23_begin_0"), val = tensor<int32, [5]>([0, 0, 0, 0, 1])];
            tensor<int32, [5]> x2_23_end_0 = const()[name = string("x2_23_end_0"), val = tensor<int32, [5]>([8, 4, 1500, 16, 2])];
            tensor<bool, [5]> x2_23_end_mask_0 = const()[name = string("x2_23_end_mask_0"), val = tensor<bool, [5]>([true, true, true, true, false])];
            tensor<bool, [5]> x2_23_squeeze_mask_0 = const()[name = string("x2_23_squeeze_mask_0"), val = tensor<bool, [5]>([false, false, false, false, true])];
            tensor<fp16, [8, 4, 1500, 16]> x2_23_cast_fp16 = slice_by_index(begin = x2_23_begin_0, end = x2_23_end_0, end_mask = x2_23_end_mask_0, squeeze_mask = x2_23_squeeze_mask_0, x = x_33_cast_fp16)[name = string("x2_23_cast_fp16")];
            fp16 const_55_promoted_to_fp16 = const()[name = string("const_55_promoted_to_fp16"), val = fp16(-0x1p+0)];
            tensor<fp16, [8, 4, 1500, 16]> var_819_cast_fp16 = mul(x = x2_23_cast_fp16, y = const_55_promoted_to_fp16)[name = string("op_819_cast_fp16")];
            int32 var_821_axis_0 = const()[name = string("op_821_axis_0"), val = int32(-1)];
            tensor<fp16, [8, 4, 1500, 16, 2]> var_821_cast_fp16 = stack(axis = var_821_axis_0, values = (var_819_cast_fp16, x1_23_cast_fp16))[name = string("op_821_cast_fp16")];
            tensor<int32, [4]> concat_69 = const()[name = string("concat_69"), val = tensor<int32, [4]>([8, 4, 1500, 32])];
            tensor<fp16, [8, 4, 1500, 32]> var_822_cast_fp16 = reshape(shape = concat_69, x = var_821_cast_fp16)[name = string("op_822_cast_fp16")];
            tensor<fp16, [8, 4, 1500, 32]> var_824_cast_fp16 = mul(x = var_822_cast_fp16, y = var_288_to_fp16)[name = string("op_824_cast_fp16")];
            tensor<fp16, [8, 4, 1500, 32]> k_11_cast_fp16 = add(x = var_814_cast_fp16, y = var_824_cast_fp16)[name = string("k_11_cast_fp16")];
            tensor<fp16, [8, 4, 1500, 32]> out_21_cast_fp16 = scaled_dot_product_attention(key = k_11_cast_fp16, query = q_11_cast_fp16, value = v_11_cast_fp16)[name = string("out_21_cast_fp16")];
            tensor<fp16, [4, 128]> model_frontend_blocks_2_partial_attnT_to_gates_weight_to_fp16 = const()[name = string("model_frontend_blocks_2_partial_attnT_to_gates_weight_to_fp16"), val = tensor<fp16, [4, 128]>(BLOBFILE(path = string("@model_path/weights/weight.bin"), offset = uint64(3308864)))];
            tensor<fp16, [4]> model_frontend_blocks_2_partial_attnT_to_gates_bias_to_fp16 = const()[name = string("model_frontend_blocks_2_partial_attnT_to_gates_bias_to_fp16"), val = tensor<fp16, [4]>([0x1.6cp-5, 0x1.54p-4, 0x1.8e4p-5, 0x1.17cp-6])];
            tensor<fp16, [8, 1500, 4]> linear_26_cast_fp16 = linear(bias = model_frontend_blocks_2_partial_attnT_to_gates_bias_to_fp16, weight = model_frontend_blocks_2_partial_attnT_to_gates_weight_to_fp16, x = input_131_cast_fp16)[name = string("linear_26_cast_fp16")];
            tensor<int32, [3]> var_830 = const()[name = string("op_830"), val = tensor<int32, [3]>([0, 2, 1])];
            tensor<int32, [1]> gates_11_axes_0 = const()[name = string("gates_11_axes_0"), val = tensor<int32, [1]>([-1])];
            tensor<fp16, [8, 4, 1500]> var_831_cast_fp16 = transpose(perm = var_830, x = linear_26_cast_fp16)[name = string("transpose_70")];
            tensor<fp16, [8, 4, 1500, 1]> gates_11_cast_fp16 = expand_dims(axes = gates_11_axes_0, x = var_831_cast_fp16)[name = string("gates_11_cast_fp16")];
            tensor<fp16, [8, 4, 1500, 1]> var_833_cast_fp16 = sigmoid(x = gates_11_cast_fp16)[name = string("op_833_cast_fp16")];
            tensor<fp16, [8, 4, 1500, 32]> out_23_cast_fp16 = mul(x = out_21_cast_fp16, y = var_833_cast_fp16)[name = string("out_23_cast_fp16")];
            tensor<int32, [4]> var_835 = const()[name = string("op_835"), val = tensor<int32, [4]>([0, 2, 1, 3])];
            tensor<int32, [3]> concat_70 = const()[name = string("concat_70"), val = tensor<int32, [3]>([8, 1500, 128])];
            tensor<fp16, [8, 1500, 4, 32]> var_836_cast_fp16 = transpose(perm = var_835, x = out_23_cast_fp16)[name = string("transpose_69")];
            tensor<fp16, [8, 1500, 128]> input_133_cast_fp16 = reshape(shape = concat_70, x = var_836_cast_fp16)[name = string("input_133_cast_fp16")];
            tensor<fp16, [128, 128]> model_frontend_blocks_2_partial_attnT_to_out_0_weight_to_fp16 = const()[name = string("model_frontend_blocks_2_partial_attnT_to_out_0_weight_to_fp16"), val = tensor<fp16, [128, 128]>(BLOBFILE(path = string("@model_path/weights/weight.bin"), offset = uint64(3309952)))];
            tensor<fp16, [8, 1500, 128]> linear_27_cast_fp16 = linear(bias = var_40_bias_0_to_fp16, weight = model_frontend_blocks_2_partial_attnT_to_out_0_weight_to_fp16, x = input_133_cast_fp16)[name = string("linear_27_cast_fp16")];
            tensor<fp16, [8, 1500, 128]> input_137_cast_fp16 = add(x = input_129_cast_fp16, y = linear_27_cast_fp16)[name = string("input_137_cast_fp16")];
            tensor<int32, [1]> var_848 = const()[name = string("op_848"), val = tensor<int32, [1]>([-1])];
            tensor<fp16, [8, 1500, 1]> var_849_cast_fp16 = reduce_l2_norm(axes = var_848, keep_dims = var_55, x = input_137_cast_fp16)[name = string("op_849_cast_fp16")];
            tensor<fp16, [8, 1500, 1]> var_850_cast_fp16 = maximum(x = var_849_cast_fp16, y = var_59_to_fp16)[name = string("op_850_cast_fp16")];
            tensor<int32, [3]> denom_23_reps_0 = const()[name = string("denom_23_reps_0"), val = tensor<int32, [3]>([1, 1, 128])];
            tensor<fp16, [8, 1500, 128]> denom_23_cast_fp16 = tile(reps = denom_23_reps_0, x = var_850_cast_fp16)[name = string("denom_23_cast_fp16")];
            tensor<fp16, [8, 1500, 128]> var_852_cast_fp16 = real_div(x = input_137_cast_fp16, y = denom_23_cast_fp16)[name = string("op_852_cast_fp16")];
            fp16 var_853_to_fp16 = const()[name = string("op_853_to_fp16"), val = fp16(0x1.6ap+3)];
            tensor<fp16, [8, 1500, 128]> var_854_cast_fp16 = mul(x = var_852_cast_fp16, y = var_853_to_fp16)[name = string("op_854_cast_fp16")];
            tensor<fp16, [128]> model_frontend_blocks_2_partial_ffT_net_0_gamma_to_fp16 = const()[name = string("model_frontend_blocks_2_partial_ffT_net_0_gamma_to_fp16"), val = tensor<fp16, [128]>(BLOBFILE(path = string("@model_path/weights/weight.bin"), offset = uint64(3342784)))];
            tensor<fp16, [8, 1500, 128]> input_139_cast_fp16 = mul(x = var_854_cast_fp16, y = model_frontend_blocks_2_partial_ffT_net_0_gamma_to_fp16)[name = string("input_139_cast_fp16")];
            tensor<fp16, [512, 128]> model_frontend_blocks_2_partial_ffT_net_1_weight_to_fp16 = const()[name = string("model_frontend_blocks_2_partial_ffT_net_1_weight_to_fp16"), val = tensor<fp16, [512, 128]>(BLOBFILE(path = string("@model_path/weights/weight.bin"), offset = uint64(3343104)))];
            tensor<fp16, [512]> model_frontend_blocks_2_partial_ffT_net_1_bias_to_fp16 = const()[name = string("model_frontend_blocks_2_partial_ffT_net_1_bias_to_fp16"), val = tensor<fp16, [512]>(BLOBFILE(path = string("@model_path/weights/weight.bin"), offset = uint64(3474240)))];
            tensor<fp16, [8, 1500, 512]> linear_28_cast_fp16 = linear(bias = model_frontend_blocks_2_partial_ffT_net_1_bias_to_fp16, weight = model_frontend_blocks_2_partial_ffT_net_1_weight_to_fp16, x = input_139_cast_fp16)[name = string("linear_28_cast_fp16")];
            string input_143_mode_0 = const()[name = string("input_143_mode_0"), val = string("EXACT")];
            tensor<fp16, [8, 1500, 512]> input_143_cast_fp16 = gelu(mode = input_143_mode_0, x = linear_28_cast_fp16)[name = string("input_143_cast_fp16")];
            tensor<fp16, [128, 512]> model_frontend_blocks_2_partial_ffT_net_4_weight_to_fp16 = const()[name = string("model_frontend_blocks_2_partial_ffT_net_4_weight_to_fp16"), val = tensor<fp16, [128, 512]>(BLOBFILE(path = string("@model_path/weights/weight.bin"), offset = uint64(3475328)))];
            tensor<fp16, [128]> model_frontend_blocks_2_partial_ffT_net_4_bias_to_fp16 = const()[name = string("model_frontend_blocks_2_partial_ffT_net_4_bias_to_fp16"), val = tensor<fp16, [128]>(BLOBFILE(path = string("@model_path/weights/weight.bin"), offset = uint64(3606464)))];
            tensor<fp16, [8, 1500, 128]> linear_29_cast_fp16 = linear(bias = model_frontend_blocks_2_partial_ffT_net_4_bias_to_fp16, weight = model_frontend_blocks_2_partial_ffT_net_4_weight_to_fp16, x = input_143_cast_fp16)[name = string("linear_29_cast_fp16")];
            tensor<fp16, [8, 1500, 128]> var_865_cast_fp16 = add(x = input_137_cast_fp16, y = linear_29_cast_fp16)[name = string("op_865_cast_fp16")];
            tensor<int32, [4]> concat_71 = const()[name = string("concat_71"), val = tensor<int32, [4]>([1, -1, 1500, 128])];
            tensor<fp16, [1, 8, 1500, 128]> var_867_cast_fp16 = reshape(shape = concat_71, x = var_865_cast_fp16)[name = string("op_867_cast_fp16")];
            tensor<int32, [4]> var_868 = const()[name = string("op_868"), val = tensor<int32, [4]>([0, 3, 1, 2])];
            string input_151_pad_type_0 = const()[name = string("input_151_pad_type_0"), val = string("custom")];
            tensor<int32, [4]> input_151_pad_0 = const()[name = string("input_151_pad_0"), val = tensor<int32, [4]>([0, 0, 1, 1])];
            tensor<int32, [2]> input_151_strides_0 = const()[name = string("input_151_strides_0"), val = tensor<int32, [2]>([2, 1])];
            tensor<int32, [2]> input_151_dilations_0 = const()[name = string("input_151_dilations_0"), val = tensor<int32, [2]>([1, 1])];
            int32 input_151_groups_0 = const()[name = string("input_151_groups_0"), val = int32(1)];
            tensor<fp16, [256, 128, 2, 3]> const_110_to_fp16 = const()[name = string("const_110_to_fp16"), val = tensor<fp16, [256, 128, 2, 3]>(BLOBFILE(path = string("@model_path/weights/weight.bin"), offset = uint64(3606784)))];
            tensor<fp16, [256]> const_111_to_fp16 = const()[name = string("const_111_to_fp16"), val = tensor<fp16, [256]>(BLOBFILE(path = string("@model_path/weights/weight.bin"), offset = uint64(4000064)))];
            tensor<fp16, [1, 128, 8, 1500]> input_149_cast_fp16 = transpose(perm = var_868, x = var_867_cast_fp16)[name = string("transpose_68")];
            tensor<fp16, [1, 256, 4, 1500]> input_153_cast_fp16 = conv(bias = const_111_to_fp16, dilations = input_151_dilations_0, groups = input_151_groups_0, pad = input_151_pad_0, pad_type = input_151_pad_type_0, strides = input_151_strides_0, weight = const_110_to_fp16, x = input_149_cast_fp16)[name = string("input_153_cast_fp16")];
            string x_35_mode_0 = const()[name = string("x_35_mode_0"), val = string("EXACT")];
            tensor<fp16, [1, 256, 4, 1500]> x_35_cast_fp16 = gelu(mode = x_35_mode_0, x = input_153_cast_fp16)[name = string("x_35_cast_fp16")];
            tensor<int32, [4]> var_882 = const()[name = string("op_882"), val = tensor<int32, [4]>([0, 3, 1, 2])];
            tensor<int32, [3]> concat_72 = const()[name = string("concat_72"), val = tensor<int32, [3]>([1, 1500, 1024])];
            tensor<fp16, [1, 1500, 256, 4]> var_883_cast_fp16 = transpose(perm = var_882, x = x_35_cast_fp16)[name = string("transpose_67")];
            tensor<fp16, [1, 1500, 1024]> input_155_cast_fp16 = reshape(shape = concat_72, x = var_883_cast_fp16)[name = string("input_155_cast_fp16")];
            tensor<fp16, [128, 1024]> model_frontend_linear_weight_to_fp16 = const()[name = string("model_frontend_linear_weight_to_fp16"), val = tensor<fp16, [128, 1024]>(BLOBFILE(path = string("@model_path/weights/weight.bin"), offset = uint64(4000640)))];
            tensor<fp16, [128]> model_frontend_linear_bias_to_fp16 = const()[name = string("model_frontend_linear_bias_to_fp16"), val = tensor<fp16, [128]>(BLOBFILE(path = string("@model_path/weights/weight.bin"), offset = uint64(4262848)))];
            tensor<fp16, [1, 1500, 128]> linear_30_cast_fp16 = linear(bias = model_frontend_linear_bias_to_fp16, weight = model_frontend_linear_weight_to_fp16, x = input_155_cast_fp16)[name = string("linear_30_cast_fp16")];
            tensor<int32, [1]> var_930 = const()[name = string("op_930"), val = tensor<int32, [1]>([-1])];
            tensor<fp16, [1, 1500, 1]> var_931_cast_fp16 = reduce_l2_norm(axes = var_930, keep_dims = var_55, x = linear_30_cast_fp16)[name = string("op_931_cast_fp16")];
            tensor<fp16, [1, 1500, 1]> var_932_cast_fp16 = maximum(x = var_931_cast_fp16, y = var_59_to_fp16)[name = string("op_932_cast_fp16")];
            tensor<int32, [3]> denom_25_reps_0 = const()[name = string("denom_25_reps_0"), val = tensor<int32, [3]>([1, 1, 128])];
            tensor<fp16, [1, 1500, 128]> denom_25_cast_fp16 = tile(reps = denom_25_reps_0, x = var_932_cast_fp16)[name = string("denom_25_cast_fp16")];
            tensor<fp16, [1, 1500, 128]> var_934_cast_fp16 = real_div(x = linear_30_cast_fp16, y = denom_25_cast_fp16)[name = string("op_934_cast_fp16")];
            fp16 var_935_to_fp16 = const()[name = string("op_935_to_fp16"), val = fp16(0x1.6ap+3)];
            tensor<fp16, [1, 1500, 128]> var_936_cast_fp16 = mul(x = var_934_cast_fp16, y = var_935_to_fp16)[name = string("op_936_cast_fp16")];
            tensor<fp16, [128]> model_transformer_blocks_layers_0_0_norm_gamma_to_fp16 = const()[name = string("model_transformer_blocks_layers_0_0_norm_gamma_to_fp16"), val = tensor<fp16, [128]>(BLOBFILE(path = string("@model_path/weights/weight.bin"), offset = uint64(4263168)))];
            tensor<fp16, [1, 1500, 128]> input_159_cast_fp16 = mul(x = var_936_cast_fp16, y = model_transformer_blocks_layers_0_0_norm_gamma_to_fp16)[name = string("input_159_cast_fp16")];
            tensor<fp16, [384, 128]> model_transformer_blocks_layers_0_0_to_qkv_weight_to_fp16 = const()[name = string("model_transformer_blocks_layers_0_0_to_qkv_weight_to_fp16"), val = tensor<fp16, [384, 128]>(BLOBFILE(path = string("@model_path/weights/weight.bin"), offset = uint64(4263488)))];
            tensor<fp16, [1, 1500, 384]> linear_31_cast_fp16 = linear(bias = linear_20_bias_0_to_fp16, weight = model_transformer_blocks_layers_0_0_to_qkv_weight_to_fp16, x = input_159_cast_fp16)[name = string("linear_31_cast_fp16")];
            tensor<int32, [5]> concat_73 = const()[name = string("concat_73"), val = tensor<int32, [5]>([1, 1500, 3, 4, -1])];
            tensor<fp16, [1, 1500, 3, 4, 32]> var_941_cast_fp16 = reshape(shape = concat_73, x = linear_31_cast_fp16)[name = string("op_941_cast_fp16")];
            tensor<int32, [5]> var_942 = const()[name = string("op_942"), val = tensor<int32, [5]>([2, 0, 3, 1, 4])];
            tensor<int32, [5]> t_25_begin_0 = const()[name = string("t_25_begin_0"), val = tensor<int32, [5]>([0, 0, 0, 0, 0])];
            tensor<int32, [5]> t_25_end_0 = const()[name = string("t_25_end_0"), val = tensor<int32, [5]>([1, 1, 4, 1500, 32])];
            tensor<bool, [5]> t_25_end_mask_0 = const()[name = string("t_25_end_mask_0"), val = tensor<bool, [5]>([false, true, true, true, true])];
            tensor<bool, [5]> t_25_squeeze_mask_0 = const()[name = string("t_25_squeeze_mask_0"), val = tensor<bool, [5]>([true, false, false, false, false])];
            tensor<fp16, [3, 1, 4, 1500, 32]> qkv_13_cast_fp16 = transpose(perm = var_942, x = var_941_cast_fp16)[name = string("transpose_66")];
            tensor<fp16, [1, 4, 1500, 32]> t_25_cast_fp16 = slice_by_index(begin = t_25_begin_0, end = t_25_end_0, end_mask = t_25_end_mask_0, squeeze_mask = t_25_squeeze_mask_0, x = qkv_13_cast_fp16)[name = string("t_25_cast_fp16")];
            tensor<int32, [5]> t_27_begin_0 = const()[name = string("t_27_begin_0"), val = tensor<int32, [5]>([1, 0, 0, 0, 0])];
            tensor<int32, [5]> t_27_end_0 = const()[name = string("t_27_end_0"), val = tensor<int32, [5]>([2, 1, 4, 1500, 32])];
            tensor<bool, [5]> t_27_end_mask_0 = const()[name = string("t_27_end_mask_0"), val = tensor<bool, [5]>([false, true, true, true, true])];
            tensor<bool, [5]> t_27_squeeze_mask_0 = const()[name = string("t_27_squeeze_mask_0"), val = tensor<bool, [5]>([true, false, false, false, false])];
            tensor<fp16, [1, 4, 1500, 32]> t_27_cast_fp16 = slice_by_index(begin = t_27_begin_0, end = t_27_end_0, end_mask = t_27_end_mask_0, squeeze_mask = t_27_squeeze_mask_0, x = qkv_13_cast_fp16)[name = string("t_27_cast_fp16")];
            tensor<int32, [5]> v_13_begin_0 = const()[name = string("v_13_begin_0"), val = tensor<int32, [5]>([2, 0, 0, 0, 0])];
            tensor<int32, [5]> v_13_end_0 = const()[name = string("v_13_end_0"), val = tensor<int32, [5]>([3, 1, 4, 1500, 32])];
            tensor<bool, [5]> v_13_end_mask_0 = const()[name = string("v_13_end_mask_0"), val = tensor<bool, [5]>([false, true, true, true, true])];
            tensor<bool, [5]> v_13_squeeze_mask_0 = const()[name = string("v_13_squeeze_mask_0"), val = tensor<bool, [5]>([true, false, false, false, false])];
            tensor<fp16, [1, 4, 1500, 32]> v_13_cast_fp16 = slice_by_index(begin = v_13_begin_0, end = v_13_end_0, end_mask = v_13_end_mask_0, squeeze_mask = v_13_squeeze_mask_0, x = qkv_13_cast_fp16)[name = string("v_13_cast_fp16")];
            tensor<fp16, [1, 4, 1500, 32]> var_960_cast_fp16 = mul(x = t_25_cast_fp16, y = var_278_to_fp16)[name = string("op_960_cast_fp16")];
            tensor<int32, [5]> concat_76 = const()[name = string("concat_76"), val = tensor<int32, [5]>([1, 4, 1500, -1, 2])];
            tensor<fp16, [1, 4, 1500, 16, 2]> x_37_cast_fp16 = reshape(shape = concat_76, x = t_25_cast_fp16)[name = string("x_37_cast_fp16")];
            tensor<int32, [5]> x1_25_begin_0 = const()[name = string("x1_25_begin_0"), val = tensor<int32, [5]>([0, 0, 0, 0, 0])];
            tensor<int32, [5]> x1_25_end_0 = const()[name = string("x1_25_end_0"), val = tensor<int32, [5]>([1, 4, 1500, 16, 1])];
            tensor<bool, [5]> x1_25_end_mask_0 = const()[name = string("x1_25_end_mask_0"), val = tensor<bool, [5]>([true, true, true, true, false])];
            tensor<bool, [5]> x1_25_squeeze_mask_0 = const()[name = string("x1_25_squeeze_mask_0"), val = tensor<bool, [5]>([false, false, false, false, true])];
            tensor<fp16, [1, 4, 1500, 16]> x1_25_cast_fp16 = slice_by_index(begin = x1_25_begin_0, end = x1_25_end_0, end_mask = x1_25_end_mask_0, squeeze_mask = x1_25_squeeze_mask_0, x = x_37_cast_fp16)[name = string("x1_25_cast_fp16")];
            tensor<int32, [5]> x2_25_begin_0 = const()[name = string("x2_25_begin_0"), val = tensor<int32, [5]>([0, 0, 0, 0, 1])];
            tensor<int32, [5]> x2_25_end_0 = const()[name = string("x2_25_end_0"), val = tensor<int32, [5]>([1, 4, 1500, 16, 2])];
            tensor<bool, [5]> x2_25_end_mask_0 = const()[name = string("x2_25_end_mask_0"), val = tensor<bool, [5]>([true, true, true, true, false])];
            tensor<bool, [5]> x2_25_squeeze_mask_0 = const()[name = string("x2_25_squeeze_mask_0"), val = tensor<bool, [5]>([false, false, false, false, true])];
            tensor<fp16, [1, 4, 1500, 16]> x2_25_cast_fp16 = slice_by_index(begin = x2_25_begin_0, end = x2_25_end_0, end_mask = x2_25_end_mask_0, squeeze_mask = x2_25_squeeze_mask_0, x = x_37_cast_fp16)[name = string("x2_25_cast_fp16")];
            fp16 const_59_promoted_to_fp16 = const()[name = string("const_59_promoted_to_fp16"), val = fp16(-0x1p+0)];
            tensor<fp16, [1, 4, 1500, 16]> var_965_cast_fp16 = mul(x = x2_25_cast_fp16, y = const_59_promoted_to_fp16)[name = string("op_965_cast_fp16")];
            int32 var_967_axis_0 = const()[name = string("op_967_axis_0"), val = int32(-1)];
            tensor<fp16, [1, 4, 1500, 16, 2]> var_967_cast_fp16 = stack(axis = var_967_axis_0, values = (var_965_cast_fp16, x1_25_cast_fp16))[name = string("op_967_cast_fp16")];
            tensor<int32, [4]> concat_77 = const()[name = string("concat_77"), val = tensor<int32, [4]>([1, 4, 1500, 32])];
            tensor<fp16, [1, 4, 1500, 32]> var_968_cast_fp16 = reshape(shape = concat_77, x = var_967_cast_fp16)[name = string("op_968_cast_fp16")];
            tensor<fp16, [1, 4, 1500, 32]> var_970_cast_fp16 = mul(x = var_968_cast_fp16, y = var_288_to_fp16)[name = string("op_970_cast_fp16")];
            tensor<fp16, [1, 4, 1500, 32]> q_13_cast_fp16 = add(x = var_960_cast_fp16, y = var_970_cast_fp16)[name = string("q_13_cast_fp16")];
            tensor<fp16, [1, 4, 1500, 32]> var_985_cast_fp16 = mul(x = t_27_cast_fp16, y = var_278_to_fp16)[name = string("op_985_cast_fp16")];
            tensor<int32, [5]> concat_80 = const()[name = string("concat_80"), val = tensor<int32, [5]>([1, 4, 1500, -1, 2])];
            tensor<fp16, [1, 4, 1500, 16, 2]> x_39_cast_fp16 = reshape(shape = concat_80, x = t_27_cast_fp16)[name = string("x_39_cast_fp16")];
            tensor<int32, [5]> x1_27_begin_0 = const()[name = string("x1_27_begin_0"), val = tensor<int32, [5]>([0, 0, 0, 0, 0])];
            tensor<int32, [5]> x1_27_end_0 = const()[name = string("x1_27_end_0"), val = tensor<int32, [5]>([1, 4, 1500, 16, 1])];
            tensor<bool, [5]> x1_27_end_mask_0 = const()[name = string("x1_27_end_mask_0"), val = tensor<bool, [5]>([true, true, true, true, false])];
            tensor<bool, [5]> x1_27_squeeze_mask_0 = const()[name = string("x1_27_squeeze_mask_0"), val = tensor<bool, [5]>([false, false, false, false, true])];
            tensor<fp16, [1, 4, 1500, 16]> x1_27_cast_fp16 = slice_by_index(begin = x1_27_begin_0, end = x1_27_end_0, end_mask = x1_27_end_mask_0, squeeze_mask = x1_27_squeeze_mask_0, x = x_39_cast_fp16)[name = string("x1_27_cast_fp16")];
            tensor<int32, [5]> x2_27_begin_0 = const()[name = string("x2_27_begin_0"), val = tensor<int32, [5]>([0, 0, 0, 0, 1])];
            tensor<int32, [5]> x2_27_end_0 = const()[name = string("x2_27_end_0"), val = tensor<int32, [5]>([1, 4, 1500, 16, 2])];
            tensor<bool, [5]> x2_27_end_mask_0 = const()[name = string("x2_27_end_mask_0"), val = tensor<bool, [5]>([true, true, true, true, false])];
            tensor<bool, [5]> x2_27_squeeze_mask_0 = const()[name = string("x2_27_squeeze_mask_0"), val = tensor<bool, [5]>([false, false, false, false, true])];
            tensor<fp16, [1, 4, 1500, 16]> x2_27_cast_fp16 = slice_by_index(begin = x2_27_begin_0, end = x2_27_end_0, end_mask = x2_27_end_mask_0, squeeze_mask = x2_27_squeeze_mask_0, x = x_39_cast_fp16)[name = string("x2_27_cast_fp16")];
            fp16 const_63_promoted_to_fp16 = const()[name = string("const_63_promoted_to_fp16"), val = fp16(-0x1p+0)];
            tensor<fp16, [1, 4, 1500, 16]> var_990_cast_fp16 = mul(x = x2_27_cast_fp16, y = const_63_promoted_to_fp16)[name = string("op_990_cast_fp16")];
            int32 var_992_axis_0 = const()[name = string("op_992_axis_0"), val = int32(-1)];
            tensor<fp16, [1, 4, 1500, 16, 2]> var_992_cast_fp16 = stack(axis = var_992_axis_0, values = (var_990_cast_fp16, x1_27_cast_fp16))[name = string("op_992_cast_fp16")];
            tensor<int32, [4]> concat_81 = const()[name = string("concat_81"), val = tensor<int32, [4]>([1, 4, 1500, 32])];
            tensor<fp16, [1, 4, 1500, 32]> var_993_cast_fp16 = reshape(shape = concat_81, x = var_992_cast_fp16)[name = string("op_993_cast_fp16")];
            tensor<fp16, [1, 4, 1500, 32]> var_995_cast_fp16 = mul(x = var_993_cast_fp16, y = var_288_to_fp16)[name = string("op_995_cast_fp16")];
            tensor<fp16, [1, 4, 1500, 32]> k_13_cast_fp16 = add(x = var_985_cast_fp16, y = var_995_cast_fp16)[name = string("k_13_cast_fp16")];
            tensor<fp16, [1, 4, 1500, 32]> out_25_cast_fp16 = scaled_dot_product_attention(key = k_13_cast_fp16, query = q_13_cast_fp16, value = v_13_cast_fp16)[name = string("out_25_cast_fp16")];
            tensor<fp16, [4, 128]> model_transformer_blocks_layers_0_0_to_gates_weight_to_fp16 = const()[name = string("model_transformer_blocks_layers_0_0_to_gates_weight_to_fp16"), val = tensor<fp16, [4, 128]>(BLOBFILE(path = string("@model_path/weights/weight.bin"), offset = uint64(4361856)))];
            tensor<fp16, [4]> model_transformer_blocks_layers_0_0_to_gates_bias_to_fp16 = const()[name = string("model_transformer_blocks_layers_0_0_to_gates_bias_to_fp16"), val = tensor<fp16, [4]>([0x1.aap-6, 0x1.7f8p-6, 0x1.dep-6, 0x1.18p-4])];
            tensor<fp16, [1, 1500, 4]> linear_32_cast_fp16 = linear(bias = model_transformer_blocks_layers_0_0_to_gates_bias_to_fp16, weight = model_transformer_blocks_layers_0_0_to_gates_weight_to_fp16, x = input_159_cast_fp16)[name = string("linear_32_cast_fp16")];
            tensor<int32, [3]> var_1001 = const()[name = string("op_1001"), val = tensor<int32, [3]>([0, 2, 1])];
            tensor<int32, [1]> gates_13_axes_0 = const()[name = string("gates_13_axes_0"), val = tensor<int32, [1]>([-1])];
            tensor<fp16, [1, 4, 1500]> var_1002_cast_fp16 = transpose(perm = var_1001, x = linear_32_cast_fp16)[name = string("transpose_65")];
            tensor<fp16, [1, 4, 1500, 1]> gates_13_cast_fp16 = expand_dims(axes = gates_13_axes_0, x = var_1002_cast_fp16)[name = string("gates_13_cast_fp16")];
            tensor<fp16, [1, 4, 1500, 1]> var_1004_cast_fp16 = sigmoid(x = gates_13_cast_fp16)[name = string("op_1004_cast_fp16")];
            tensor<fp16, [1, 4, 1500, 32]> out_27_cast_fp16 = mul(x = out_25_cast_fp16, y = var_1004_cast_fp16)[name = string("out_27_cast_fp16")];
            tensor<int32, [4]> var_1006 = const()[name = string("op_1006"), val = tensor<int32, [4]>([0, 2, 1, 3])];
            tensor<int32, [3]> concat_82 = const()[name = string("concat_82"), val = tensor<int32, [3]>([1, 1500, 128])];
            tensor<fp16, [1, 1500, 4, 32]> var_1007_cast_fp16 = transpose(perm = var_1006, x = out_27_cast_fp16)[name = string("transpose_64")];
            tensor<fp16, [1, 1500, 128]> input_161_cast_fp16 = reshape(shape = concat_82, x = var_1007_cast_fp16)[name = string("input_161_cast_fp16")];
            tensor<fp16, [128, 128]> model_transformer_blocks_layers_0_0_to_out_0_weight_to_fp16 = const()[name = string("model_transformer_blocks_layers_0_0_to_out_0_weight_to_fp16"), val = tensor<fp16, [128, 128]>(BLOBFILE(path = string("@model_path/weights/weight.bin"), offset = uint64(4362944)))];
            tensor<fp16, [1, 1500, 128]> linear_33_cast_fp16 = linear(bias = var_40_bias_0_to_fp16, weight = model_transformer_blocks_layers_0_0_to_out_0_weight_to_fp16, x = input_161_cast_fp16)[name = string("linear_33_cast_fp16")];
            tensor<fp16, [1, 1500, 128]> input_165_cast_fp16 = add(x = linear_33_cast_fp16, y = linear_30_cast_fp16)[name = string("input_165_cast_fp16")];
            tensor<int32, [1]> var_1019 = const()[name = string("op_1019"), val = tensor<int32, [1]>([-1])];
            tensor<fp16, [1, 1500, 1]> var_1020_cast_fp16 = reduce_l2_norm(axes = var_1019, keep_dims = var_55, x = input_165_cast_fp16)[name = string("op_1020_cast_fp16")];
            tensor<fp16, [1, 1500, 1]> var_1021_cast_fp16 = maximum(x = var_1020_cast_fp16, y = var_59_to_fp16)[name = string("op_1021_cast_fp16")];
            tensor<int32, [3]> denom_27_reps_0 = const()[name = string("denom_27_reps_0"), val = tensor<int32, [3]>([1, 1, 128])];
            tensor<fp16, [1, 1500, 128]> denom_27_cast_fp16 = tile(reps = denom_27_reps_0, x = var_1021_cast_fp16)[name = string("denom_27_cast_fp16")];
            tensor<fp16, [1, 1500, 128]> var_1023_cast_fp16 = real_div(x = input_165_cast_fp16, y = denom_27_cast_fp16)[name = string("op_1023_cast_fp16")];
            fp16 var_1024_to_fp16 = const()[name = string("op_1024_to_fp16"), val = fp16(0x1.6ap+3)];
            tensor<fp16, [1, 1500, 128]> var_1025_cast_fp16 = mul(x = var_1023_cast_fp16, y = var_1024_to_fp16)[name = string("op_1025_cast_fp16")];
            tensor<fp16, [128]> model_transformer_blocks_layers_0_1_net_0_gamma_to_fp16 = const()[name = string("model_transformer_blocks_layers_0_1_net_0_gamma_to_fp16"), val = tensor<fp16, [128]>(BLOBFILE(path = string("@model_path/weights/weight.bin"), offset = uint64(4395776)))];
…
            tensor<fp16, [1, 4, 1500, 32]> var_1321_cast_fp16 = mul(x = t_39_cast_fp16, y = var_278_to_fp16)[name = string("op_1321_cast_fp16")];
            tensor<int32, [5]> concat_110 = const()[name = string("concat_110"), val = tensor<int32, [5]>([1, 4, 1500, -1, 2])];
            tensor<fp16, [1, 4, 1500, 16, 2]> x_51_cast_fp16 = reshape(shape = concat_110, x = t_39_cast_fp16)[name = string("x_51_cast_fp16")];
            tensor<int32, [5]> x1_39_begin_0 = const()[name = string("x1_39_begin_0"), val = tensor<int32, [5]>([0, 0, 0, 0, 0])];
            tensor<int32, [5]> x1_39_end_0 = const()[name = string("x1_39_end_0"), val = tensor<int32, [5]>([1, 4, 1500, 16, 1])];
            tensor<bool, [5]> x1_39_end_mask_0 = const()[name = string("x1_39_end_mask_0"), val = tensor<bool, [5]>([true, true, true, true, false])];
            tensor<bool, [5]> x1_39_squeeze_mask_0 = const()[name = string("x1_39_squeeze_mask_0"), val = tensor<bool, [5]>([false, false, false, false, true])];
            tensor<fp16, [1, 4, 1500, 16]> x1_39_cast_fp16 = slice_by_index(begin = x1_39_begin_0, end = x1_39_end_0, end_mask = x1_39_end_mask_0, squeeze_mask = x1_39_squeeze_mask_0, x = x_51_cast_fp16)[name = string("x1_39_cast_fp16")];
            tensor<int32, [5]> x2_39_begin_0 = const()[name = string("x2_39_begin_0"), val = tensor<int32, [5]>([0, 0, 0, 0, 1])];
            tensor<int32, [5]> x2_39_end_0 = const()[name = string("x2_39_end_0"), val = tensor<int32, [5]>([1, 4, 1500, 16, 2])];
            tensor<bool, [5]> x2_39_end_mask_0 = const()[name = string("x2_39_end_mask_0"), val = tensor<bool, [5]>([true, true, true, true, false])];
            tensor<bool, [5]> x2_39_squeeze_mask_0 = const()[name = string("x2_39_squeeze_mask_0"), val = tensor<bool, [5]>([false, false, false, false, true])];
            tensor<fp16, [1, 4, 1500, 16]> x2_39_cast_fp16 = slice_by_index(begin = x2_39_begin_0, end = x2_39_end_0, end_mask = x2_39_end_mask_0, squeeze_mask = x2_39_squeeze_mask_0, x = x_51_cast_fp16)[name = string("x2_39_cast_fp16")];
            fp16 const_87_promoted_to_fp16 = const()[name = string("const_87_promoted_to_fp16"), val = fp16(-0x1p+0)];
            tensor<fp16, [1, 4, 1500, 16]> var_1326_cast_fp16 = mul(x = x2_39_cast_fp16, y = const_87_promoted_to_fp16)[name = string("op_1326_cast_fp16")];
            int32 var_1328_axis_0 = const()[name = string("op_1328_axis_0"), val = int32(-1)];
            tensor<fp16, [1, 4, 1500, 16, 2]> var_1328_cast_fp16 = stack(axis = var_1328_axis_0, values = (var_1326_cast_fp16, x1_39_cast_fp16))[name = string("op_1328_cast_fp16")];
            tensor<int32, [4]> concat_111 = const()[name = string("concat_111"), val = tensor<int32, [4]>([1, 4, 1500, 32])];
            tensor<fp16, [1, 4, 1500, 32]> var_1329_cast_fp16 = reshape(shape = concat_111, x = var_1328_cast_fp16)[name = string("op_1329_cast_fp16")];
            tensor<fp16, [1, 4, 1500, 32]> var_1331_cast_fp16 = mul(x = var_1329_cast_fp16, y = var_288_to_fp16)[name = string("op_1331_cast_fp16")];
            tensor<fp16, [1, 4, 1500, 32]> k_19_cast_fp16 = add(x = var_1321_cast_fp16, y = var_1331_cast_fp16)[name = string("k_19_cast_fp16")];
            tensor<fp16, [1, 4, 1500, 32]> out_37_cast_fp16 = scaled_dot_product_attention(key = k_19_cast_fp16, query = q_19_cast_fp16, value = v_19_cast_fp16)[name = string("out_37_cast_fp16")];
            tensor<fp16, [4, 128]> model_transformer_blocks_layers_3_0_to_gates_weight_to_fp16 = const()[name = string("model_transformer_blocks_layers_3_0_to_gates_weight_to_fp16"), val = tensor<fp16, [4, 128]>(BLOBFILE(path = string("@model_path/weights/weight.bin"), offset = uint64(5551680)))];
            tensor<fp16, [4]> model_transformer_blocks_layers_3_0_to_gates_bias_to_fp16 = const()[name = string("model_transformer_blocks_layers_3_0_to_gates_bias_to_fp16"), val = tensor<fp16, [4]>([0x1.b9cp-4, 0x1.868p-4, 0x1.cdcp-5, 0x1.5fp-4])];
            tensor<fp16, [1, 1500, 4]> linear_47_cast_fp16 = linear(bias = model_transformer_blocks_layers_3_0_to_gates_bias_to_fp16, weight = model_transformer_blocks_layers_3_0_to_gates_weight_to_fp16, x = input_219_cast_fp16)[name = string("linear_47_cast_fp16")];
            tensor<int32, [3]> var_1337 = const()[name = string("op_1337"), val = tensor<int32, [3]>([0, 2, 1])];
            tensor<int32, [1]> gates_19_axes_0 = const()[name = string("gates_19_axes_0"), val = tensor<int32, [1]>([-1])];
            tensor<fp16, [1, 4, 1500]> var_1338_cast_fp16 = transpose(perm = var_1337, x = linear_47_cast_fp16)[name = string("transpose_56")];
            tensor<fp16, [1, 4, 1500, 1]> gates_19_cast_fp16 = expand_dims(axes = gates_19_axes_0, x = var_1338_cast_fp16)[name = string("gates_19_cast_fp16")];
            tensor<fp16, [1, 4, 1500, 1]> var_1340_cast_fp16 = sigmoid(x = gates_19_cast_fp16)[name = string("op_1340_cast_fp16")];
            tensor<fp16, [1, 4, 1500, 32]> out_39_cast_fp16 = mul(x = out_37_cast_fp16, y = var_1340_cast_fp16)[name = string("out_39_cast_fp16")];
            tensor<int32, [4]> var_1342 = const()[name = string("op_1342"), val = tensor<int32, [4]>([0, 2, 1, 3])];
            tensor<int32, [3]> concat_112 = const()[name = string("concat_112"), val = tensor<int32, [3]>([1, 1500, 128])];
            tensor<fp16, [1, 1500, 4, 32]> var_1343_cast_fp16 = transpose(perm = var_1342, x = out_39_cast_fp16)[name = string("transpose_55")];
            tensor<fp16, [1, 1500, 128]> input_221_cast_fp16 = reshape(shape = concat_112, x = var_1343_cast_fp16)[name = string("input_221_cast_fp16")];
            tensor<fp16, [128, 128]> model_transformer_blocks_layers_3_0_to_out_0_weight_to_fp16 = const()[name = string("model_transformer_blocks_layers_3_0_to_out_0_weight_to_fp16"), val = tensor<fp16, [128, 128]>(BLOBFILE(path = string("@model_path/weights/weight.bin"), offset = uint64(5552768)))];
            tensor<fp16, [1, 1500, 128]> linear_48_cast_fp16 = linear(bias = var_40_bias_0_to_fp16, weight = model_transformer_blocks_layers_3_0_to_out_0_weight_to_fp16, x = input_221_cast_fp16)[name = string("linear_48_cast_fp16")];
            tensor<fp16, [1, 1500, 128]> input_225_cast_fp16 = add(x = linear_48_cast_fp16, y = input_217_cast_fp16)[name = string("input_225_cast_fp16")];
            tensor<int32, [1]> var_1355 = const()[name = string("op_1355"), val = tensor<int32, [1]>([-1])];
            tensor<fp16, [1, 1500, 1]> var_1356_cast_fp16 = reduce_l2_norm(axes = var_1355, keep_dims = var_55, x = input_225_cast_fp16)[name = string("op_1356_cast_fp16")];
            tensor<fp16, [1, 1500, 1]> var_1357_cast_fp16 = maximum(x = var_1356_cast_fp16, y = var_59_to_fp16)[name = string("op_1357_cast_fp16")];
            tensor<int32, [3]> denom_39_reps_0 = const()[name = string("denom_39_reps_0"), val = tensor<int32, [3]>([1, 1, 128])];
            tensor<fp16, [1, 1500, 128]> denom_39_cast_fp16 = tile(reps = denom_39_reps_0, x = var_1357_cast_fp16)[name = string("denom_39_cast_fp16")];
            tensor<fp16, [1, 1500, 128]> var_1359_cast_fp16 = real_div(x = input_225_cast_fp16, y = denom_39_cast_fp16)[name = string("op_1359_cast_fp16")];
            fp16 var_1360_to_fp16 = const()[name = string("op_1360_to_fp16"), val = fp16(0x1.6ap+3)];
            tensor<fp16, [1, 1500, 128]> var_1361_cast_fp16 = mul(x = var_1359_cast_fp16, y = var_1360_to_fp16)[name = string("op_1361_cast_fp16")];
            tensor<fp16, [128]> model_transformer_blocks_layers_3_1_net_0_gamma_to_fp16 = const()[name = string("model_transformer_blocks_layers_3_1_net_0_gamma_to_fp16"), val = tensor<fp16, [128]>(BLOBFILE(path = string("@model_path/weights/weight.bin"), offset = uint64(5585600)))];
            tensor<fp16, [1, 1500, 128]> input_227_cast_fp16 = mul(x = var_1361_cast_fp16, y = model_transformer_blocks_layers_3_1_net_0_gamma_to_fp16)[name = string("input_227_cast_fp16")];
            tensor<fp16, [512, 128]> model_transformer_blocks_layers_3_1_net_1_weight_to_fp16 = const()[name = string("model_transformer_blocks_layers_3_1_net_1_weight_to_fp16"), val = tensor<fp16, [512, 128]>(BLOBFILE(path = string("@model_path/weights/weight.bin"), offset = uint64(5585920)))];
            tensor<fp16, [512]> model_transformer_blocks_layers_3_1_net_1_bias_to_fp16 = const()[name = string("model_transformer_blocks_layers_3_1_net_1_bias_to_fp16"), val = tensor<fp16, [512]>(BLOBFILE(path = string("@model_path/weights/weight.bin"), offset = uint64(5717056)))];
            tensor<fp16, [1, 1500, 512]> linear_49_cast_fp16 = linear(bias = model_transformer_blocks_layers_3_1_net_1_bias_to_fp16, weight = model_transformer_blocks_layers_3_1_net_1_weight_to_fp16, x = input_227_cast_fp16)[name = string("linear_49_cast_fp16")];
            string input_231_mode_0 = const()[name = string("input_231_mode_0"), val = string("EXACT")];
            tensor<fp16, [1, 1500, 512]> input_231_cast_fp16 = gelu(mode = input_231_mode_0, x = linear_49_cast_fp16)[name = string("input_231_cast_fp16")];
            tensor<fp16, [128, 512]> model_transformer_blocks_layers_3_1_net_4_weight_to_fp16 = const()[name = string("model_transformer_blocks_layers_3_1_net_4_weight_to_fp16"), val = tensor<fp16, [128, 512]>(BLOBFILE(path = string("@model_path/weights/weight.bin"), offset = uint64(5718144)))];
            tensor<fp16, [128]> model_transformer_blocks_layers_3_1_net_4_bias_to_fp16 = const()[name = string("model_transformer_blocks_layers_3_1_net_4_bias_to_fp16"), val = tensor<fp16, [128]>(BLOBFILE(path = string("@model_path/weights/weight.bin"), offset = uint64(5849280)))];
            tensor<fp16, [1, 1500, 128]> linear_50_cast_fp16 = linear(bias = model_transformer_blocks_layers_3_1_net_4_bias_to_fp16, weight = model_transformer_blocks_layers_3_1_net_4_weight_to_fp16, x = input_231_cast_fp16)[name = string("linear_50_cast_fp16")];
            tensor<fp16, [1, 1500, 128]> input_237_cast_fp16 = add(x = linear_50_cast_fp16, y = input_225_cast_fp16)[name = string("input_237_cast_fp16")];
            tensor<int32, [1]> var_1378 = const()[name = string("op_1378"), val = tensor<int32, [1]>([-1])];
            tensor<fp16, [1, 1500, 1]> var_1379_cast_fp16 = reduce_l2_norm(axes = var_1378, keep_dims = var_55, x = input_237_cast_fp16)[name = string("op_1379_cast_fp16")];
            tensor<fp16, [1, 1500, 1]> var_1380_cast_fp16 = maximum(x = var_1379_cast_fp16, y = var_59_to_fp16)[name = string("op_1380_cast_fp16")];
            tensor<int32, [3]> denom_41_reps_0 = const()[name = string("denom_41_reps_0"), val = tensor<int32, [3]>([1, 1, 128])];
            tensor<fp16, [1, 1500, 128]> denom_41_cast_fp16 = tile(reps = denom_41_reps_0, x = var_1380_cast_fp16)[name = string("denom_41_cast_fp16")];
            tensor<fp16, [1, 1500, 128]> var_1382_cast_fp16 = real_div(x = input_237_cast_fp16, y = denom_41_cast_fp16)[name = string("op_1382_cast_fp16")];
            fp16 var_1383_to_fp16 = const()[name = string("op_1383_to_fp16"), val = fp16(0x1.6ap+3)];
            tensor<fp16, [1, 1500, 128]> var_1384_cast_fp16 = mul(x = var_1382_cast_fp16, y = var_1383_to_fp16)[name = string("op_1384_cast_fp16")];
            tensor<fp16, [128]> model_transformer_blocks_layers_4_0_norm_gamma_to_fp16 = const()[name = string("model_transformer_blocks_layers_4_0_norm_gamma_to_fp16"), val = tensor<fp16, [128]>(BLOBFILE(path = string("@model_path/weights/weight.bin"), offset = uint64(5849600)))];
            tensor<fp16, [1, 1500, 128]> input_239_cast_fp16 = mul(x = var_1384_cast_fp16, y = model_transformer_blocks_layers_4_0_norm_gamma_to_fp16)[name = string("input_239_cast_fp16")];
            tensor<fp16, [384, 128]> model_transformer_blocks_layers_4_0_to_qkv_weight_to_fp16 = const()[name = string("model_transformer_blocks_layers_4_0_to_qkv_weight_to_fp16"), val = tensor<fp16, [384, 128]>(BLOBFILE(path = string("@model_path/weights/weight.bin"), offset = uint64(5849920)))];
            tensor<fp16, [1, 1500, 384]> linear_51_cast_fp16 = linear(bias = linear_20_bias_0_to_fp16, weight = model_transformer_blocks_layers_4_0_to_qkv_weight_to_fp16, x = input_239_cast_fp16)[name = string("linear_51_cast_fp16")];
            tensor<int32, [5]> concat_113 = const()[name = string("concat_113"), val = tensor<int32, [5]>([1, 1500, 3, 4, -1])];
            tensor<fp16, [1, 1500, 3, 4, 32]> var_1389_cast_fp16 = reshape(shape = concat_113, x = linear_51_cast_fp16)[name = string("op_1389_cast_fp16")];
            tensor<int32, [5]> var_1390 = const()[name = string("op_1390"), val = tensor<int32, [5]>([2, 0, 3, 1, 4])];
            tensor<int32, [5]> t_41_begin_0 = const()[name = string("t_41_begin_0"), val = tensor<int32, [5]>([0, 0, 0, 0, 0])];
            tensor<int32, [5]> t_41_end_0 = const()[name = string("t_41_end_0"), val = tensor<int32, [5]>([1, 1, 4, 1500, 32])];
            tensor<bool, [5]> t_41_end_mask_0 = const()[name = string("t_41_end_mask_0"), val = tensor<bool, [5]>([false, true, true, true, true])];
            tensor<bool, [5]> t_41_squeeze_mask_0 = const()[name = string("t_41_squeeze_mask_0"), val = tensor<bool, [5]>([true, false, false, false, false])];
            tensor<fp16, [3, 1, 4, 1500, 32]> qkv_21_cast_fp16 = transpose(perm = var_1390, x = var_1389_cast_fp16)[name = string("transpose_54")];
            tensor<fp16, [1, 4, 1500, 32]> t_41_cast_fp16 = slice_by_index(begin = t_41_begin_0, end = t_41_end_0, end_mask = t_41_end_mask_0, squeeze_mask = t_41_squeeze_mask_0, x = qkv_21_cast_fp16)[name = string("t_41_cast_fp16")];
            tensor<int32, [5]> t_43_begin_0 = const()[name = string("t_43_begin_0"), val = tensor<int32, [5]>([1, 0, 0, 0, 0])];
            tensor<int32, [5]> t_43_end_0 = const()[name = string("t_43_end_0"), val = tensor<int32, [5]>([2, 1, 4, 1500, 32])];
            tensor<bool, [5]> t_43_end_mask_0 = const()[name = string("t_43_end_mask_0"), val = tensor<bool, [5]>([false, true, true, true, true])];
            tensor<bool, [5]> t_43_squeeze_mask_0 = const()[name = string("t_43_squeeze_mask_0"), val = tensor<bool, [5]>([true, false, false, false, false])];
            tensor<fp16, [1, 4, 1500, 32]> t_43_cast_fp16 = slice_by_index(begin = t_43_begin_0, end = t_43_end_0, end_mask = t_43_end_mask_0, squeeze_mask = t_43_squeeze_mask_0, x = qkv_21_cast_fp16)[name = string("t_43_cast_fp16")];
            tensor<int32, [5]> v_21_begin_0 = const()[name = string("v_21_begin_0"), val = tensor<int32, [5]>([2, 0, 0, 0, 0])];
            tensor<int32, [5]> v_21_end_0 = const()[name = string("v_21_end_0"), val = tensor<int32, [5]>([3, 1, 4, 1500, 32])];
            tensor<bool, [5]> v_21_end_mask_0 = const()[name = string("v_21_end_mask_0"), val = tensor<bool, [5]>([false, true, true, true, true])];
            tensor<bool, [5]> v_21_squeeze_mask_0 = const()[name = string("v_21_squeeze_mask_0"), val = tensor<bool, [5]>([true, false, false, false, false])];
            tensor<fp16, [1, 4, 1500, 32]> v_21_cast_fp16 = slice_by_index(begin = v_21_begin_0, end = v_21_end_0, end_mask = v_21_end_mask_0, squeeze_mask = v_21_squeeze_mask_0, x = qkv_21_cast_fp16)[name = string("v_21_cast_fp16")];
            tensor<fp16, [1, 4, 1500, 32]> var_1408_cast_fp16 = mul(x = t_41_cast_fp16, y = var_278_to_fp16)[name = string("op_1408_cast_fp16")];
            tensor<int32, [5]> concat_116 = const()[name = string("concat_116"), val = tensor<int32, [5]>([1, 4, 1500, -1, 2])];
            tensor<fp16, [1, 4, 1500, 16, 2]> x_53_cast_fp16 = reshape(shape = concat_116, x = t_41_cast_fp16)[name = string("x_53_cast_fp16")];
            tensor<int32, [5]> x1_41_begin_0 = const()[name = string("x1_41_begin_0"), val = tensor<int32, [5]>([0, 0, 0, 0, 0])];
            tensor<int32, [5]> x1_41_end_0 = const()[name = string("x1_41_end_0"), val = tensor<int32, [5]>([1, 4, 1500, 16, 1])];
            tensor<bool, [5]> x1_41_end_mask_0 = const()[name = string("x1_41_end_mask_0"), val = tensor<bool, [5]>([true, true, true, true, false])];
            tensor<bool, [5]> x1_41_squeeze_mask_0 = const()[name = string("x1_41_squeeze_mask_0"), val = tensor<bool, [5]>([false, false, false, false, true])];
            tensor<fp16, [1, 4, 1500, 16]> x1_41_cast_fp16 = slice_by_index(begin = x1_41_begin_0, end = x1_41_end_0, end_mask = x1_41_end_mask_0, squeeze_mask = x1_41_squeeze_mask_0, x = x_53_cast_fp16)[name = string("x1_41_cast_fp16")];
            tensor<int32, [5]> x2_41_begin_0 = const()[name = string("x2_41_begin_0"), val = tensor<int32, [5]>([0, 0, 0, 0, 1])];
            tensor<int32, [5]> x2_41_end_0 = const()[name = string("x2_41_end_0"), val = tensor<int32, [5]>([1, 4, 1500, 16, 2])];
            tensor<bool, [5]> x2_41_end_mask_0 = const()[name = string("x2_41_end_mask_0"), val = tensor<bool, [5]>([true, true, true, true, false])];
            tensor<bool, [5]> x2_41_squeeze_mask_0 = const()[name = string("x2_41_squeeze_mask_0"), val = tensor<bool, [5]>([false, false, false, false, true])];
            tensor<fp16, [1, 4, 1500, 16]> x2_41_cast_fp16 = slice_by_index(begin = x2_41_begin_0, end = x2_41_end_0, end_mask = x2_41_end_mask_0, squeeze_mask = x2_41_squeeze_mask_0, x = x_53_cast_fp16)[name = string("x2_41_cast_fp16")];
            fp16 const_91_promoted_to_fp16 = const()[name = string("const_91_promoted_to_fp16"), val = fp16(-0x1p+0)];
            tensor<fp16, [1, 4, 1500, 16]> var_1413_cast_fp16 = mul(x = x2_41_cast_fp16, y = const_91_promoted_to_fp16)[name = string("op_1413_cast_fp16")];
            int32 var_1415_axis_0 = const()[name = string("op_1415_axis_0"), val = int32(-1)];
            tensor<fp16, [1, 4, 1500, 16, 2]> var_1415_cast_fp16 = stack(axis = var_1415_axis_0, values = (var_1413_cast_fp16, x1_41_cast_fp16))[name = string("op_1415_cast_fp16")];
            tensor<int32, [4]> concat_117 = const()[name = string("concat_117"), val = tensor<int32, [4]>([1, 4, 1500, 32])];
            tensor<fp16, [1, 4, 1500, 32]> var_1416_cast_fp16 = reshape(shape = concat_117, x = var_1415_cast_fp16)[name = string("op_1416_cast_fp16")];
            tensor<fp16, [1, 4, 1500, 32]> var_1418_cast_fp16 = mul(x = var_1416_cast_fp16, y = var_288_to_fp16)[name = string("op_1418_cast_fp16")];
            tensor<fp16, [1, 4, 1500, 32]> q_21_cast_fp16 = add(x = var_1408_cast_fp16, y = var_1418_cast_fp16)[name = string("q_21_cast_fp16")];
            tensor<fp16, [1, 4, 1500, 32]> var_1433_cast_fp16 = mul(x = t_43_cast_fp16, y = var_278_to_fp16)[name = string("op_1433_cast_fp16")];
            tensor<int32, [5]> concat_120 = const()[name = string("concat_120"), val = tensor<int32, [5]>([1, 4, 1500, -1, 2])];
            tensor<fp16, [1, 4, 1500, 16, 2]> x_55_cast_fp16 = reshape(shape = concat_120, x = t_43_cast_fp16)[name = string("x_55_cast_fp16")];
            tensor<int32, [5]> x1_43_begin_0 = const()[name = string("x1_43_begin_0"), val = tensor<int32, [5]>([0, 0, 0, 0, 0])];
            tensor<int32, [5]> x1_43_end_0 = const()[name = string("x1_43_end_0"), val = tensor<int32, [5]>([1, 4, 1500, 16, 1])];
            tensor<bool, [5]> x1_43_end_mask_0 = const()[name = string("x1_43_end_mask_0"), val = tensor<bool, [5]>([true, true, true, true, false])];
            tensor<bool, [5]> x1_43_squeeze_mask_0 = const()[name = string("x1_43_squeeze_mask_0"), val = tensor<bool, [5]>([false, false, false, false, true])];
            tensor<fp16, [1, 4, 1500, 16]> x1_43_cast_fp16 = slice_by_index(begin = x1_43_begin_0, end = x1_43_end_0, end_mask = x1_43_end_mask_0, squeeze_mask = x1_43_squeeze_mask_0, x = x_55_cast_fp16)[name = string("x1_43_cast_fp16")];
            tensor<int32, [5]> x2_43_begin_0 = const()[name = string("x2_43_begin_0"), val = tensor<int32, [5]>([0, 0, 0, 0, 1])];
            tensor<int32, [5]> x2_43_end_0 = const()[name = string("x2_43_end_0"), val = tensor<int32, [5]>([1, 4, 1500, 16, 2])];
            tensor<bool, [5]> x2_43_end_mask_0 = const()[name = string("x2_43_end_mask_0"), val = tensor<bool, [5]>([true, true, true, true, false])];
            tensor<bool, [5]> x2_43_squeeze_mask_0 = const()[name = string("x2_43_squeeze_mask_0"), val = tensor<bool, [5]>([false, false, false, false, true])];
            tensor<fp16, [1, 4, 1500, 16]> x2_43_cast_fp16 = slice_by_index(begin = x2_43_begin_0, end = x2_43_end_0, end_mask = x2_43_end_mask_0, squeeze_mask = x2_43_squeeze_mask_0, x = x_55_cast_fp16)[name = string("x2_43_cast_fp16")];
            fp16 const_95_promoted_to_fp16 = const()[name = string("const_95_promoted_to_fp16"), val = fp16(-0x1p+0)];
            tensor<fp16, [1, 4, 1500, 16]> var_1438_cast_fp16 = mul(x = x2_43_cast_fp16, y = const_95_promoted_to_fp16)[name = string("op_1438_cast_fp16")];
            int32 var_1440_axis_0 = const()[name = string("op_1440_axis_0"), val = int32(-1)];
            tensor<fp16, [1, 4, 1500, 16, 2]> var_1440_cast_fp16 = stack(axis = var_1440_axis_0, values = (var_1438_cast_fp16, x1_43_cast_fp16))[name = string("op_1440_cast_fp16")];
            tensor<int32, [4]> concat_121 = const()[name = string("concat_121"), val = tensor<int32, [4]>([1, 4, 1500, 32])];
            tensor<fp16, [1, 4, 1500, 32]> var_1441_cast_fp16 = reshape(shape = concat_121, x = var_1440_cast_fp16)[name = string("op_1441_cast_fp16")];
            tensor<fp16, [1, 4, 1500, 32]> var_1443_cast_fp16 = mul(x = var_1441_cast_fp16, y = var_288_to_fp16)[name = string("op_1443_cast_fp16")];
            tensor<fp16, [1, 4, 1500, 32]> k_21_cast_fp16 = add(x = var_1433_cast_fp16, y = var_1443_cast_fp16)[name = string("k_21_cast_fp16")];
            tensor<fp16, [1, 4, 1500, 32]> out_41_cast_fp16 = scaled_dot_product_attention(key = k_21_cast_fp16, query = q_21_cast_fp16, value = v_21_cast_fp16)[name = string("out_41_cast_fp16")];
            tensor<fp16, [4, 128]> model_transformer_blocks_layers_4_0_to_gates_weight_to_fp16 = const()[name = string("model_transformer_blocks_layers_4_0_to_gates_weight_to_fp16"), val = tensor<fp16, [4, 128]>(BLOBFILE(path = string("@model_path/weights/weight.bin"), offset = uint64(5948288)))];
            tensor<fp16, [4]> model_transformer_blocks_layers_4_0_to_gates_bias_to_fp16 = const()[name = string("model_transformer_blocks_layers_4_0_to_gates_bias_to_fp16"), val = tensor<fp16, [4]>([0x1.4d8p-4, 0x1.17p-4, 0x1.6f8p-4, 0x1.a5cp-4])];
            tensor<fp16, [1, 1500, 4]> linear_52_cast_fp16 = linear(bias = model_transformer_blocks_layers_4_0_to_gates_bias_to_fp16, weight = model_transformer_blocks_layers_4_0_to_gates_weight_to_fp16, x = input_239_cast_fp16)[name = string("linear_52_cast_fp16")];
            tensor<int32, [3]> var_1449 = const()[name = string("op_1449"), val = tensor<int32, [3]>([0, 2, 1])];
            tensor<int32, [1]> gates_21_axes_0 = const()[name = string("gates_21_axes_0"), val = tensor<int32, [1]>([-1])];
            tensor<fp16, [1, 4, 1500]> var_1450_cast_fp16 = transpose(perm = var_1449, x = linear_52_cast_fp16)[name = string("transpose_53")];
            tensor<fp16, [1, 4, 1500, 1]> gates_21_cast_fp16 = expand_dims(axes = gates_21_axes_0, x = var_1450_cast_fp16)[name = string("gates_21_cast_fp16")];
            tensor<fp16, [1, 4, 1500, 1]> var_1452_cast_fp16 = sigmoid(x = gates_21_cast_fp16)[name = string("op_1452_cast_fp16")];
            tensor<fp16, [1, 4, 1500, 32]> out_43_cast_fp16 = mul(x = out_41_cast_fp16, y = var_1452_cast_fp16)[name = string("out_43_cast_fp16")];
            tensor<int32, [4]> var_1454 = const()[name = string("op_1454"), val = tensor<int32, [4]>([0, 2, 1, 3])];
            tensor<int32, [3]> concat_122 = const()[name = string("concat_122"), val = tensor<int32, [3]>([1, 1500, 128])];
            tensor<fp16, [1, 1500, 4, 32]> var_1455_cast_fp16 = transpose(perm = var_1454, x = out_43_cast_fp16)[name = string("transpose_52")];
            tensor<fp16, [1, 1500, 128]> input_241_cast_fp16 = reshape(shape = concat_122, x = var_1455_cast_fp16)[name = string("input_241_cast_fp16")];
            tensor<fp16, [128, 128]> model_transformer_blocks_layers_4_0_to_out_0_weight_to_fp16 = const()[name = string("model_transformer_blocks_layers_4_0_to_out_0_weight_to_fp16"), val = tensor<fp16, [128, 128]>(BLOBFILE(path = string("@model_path/weights/weight.bin"), offset = uint64(5949376)))];
            tensor<fp16, [1, 1500, 128]> linear_53_cast_fp16 = linear(bias = var_40_bias_0_to_fp16, weight = model_transformer_blocks_layers_4_0_to_out_0_weight_to_fp16, x = input_241_cast_fp16)[name = string("linear_53_cast_fp16")];
            tensor<fp16, [1, 1500, 128]> input_245_cast_fp16 = add(x = linear_53_cast_fp16, y = input_237_cast_fp16)[name = string("input_245_cast_fp16")];
            tensor<int32, [1]> var_1467 = const()[name = string("op_1467"), val = tensor<int32, [1]>([-1])];
            tensor<fp16, [1, 1500, 1]> var_1468_cast_fp16 = reduce_l2_norm(axes = var_1467, keep_dims = var_55, x = input_245_cast_fp16)[name = string("op_1468_cast_fp16")];
            tensor<fp16, [1, 1500, 1]> var_1469_cast_fp16 = maximum(x = var_1468_cast_fp16, y = var_59_to_fp16)[name = string("op_1469_cast_fp16")];
            tensor<int32, [3]> denom_43_reps_0 = const()[name = string("denom_43_reps_0"), val = tensor<int32, [3]>([1, 1, 128])];
            tensor<fp16, [1, 1500, 128]> denom_43_cast_fp16 = tile(reps = denom_43_reps_0, x = var_1469_cast_fp16)[name = string("denom_43_cast_fp16")];
            tensor<fp16, [1, 1500, 128]> var_1471_cast_fp16 = real_div(x = input_245_cast_fp16, y = denom_43_cast_fp16)[name = string("op_1471_cast_fp16")];
            fp16 var_1472_to_fp16 = const()[name = string("op_1472_to_fp16"), val = fp16(0x1.6ap+3)];
            tensor<fp16, [1, 1500, 128]> var_1473_cast_fp16 = mul(x = var_1471_cast_fp16, y = var_1472_to_fp16)[name = string("op_1473_cast_fp16")];
            tensor<fp16, [128]> model_transformer_blocks_layers_4_1_net_0_gamma_to_fp16 = const()[name = string("model_transformer_blocks_layers_4_1_net_0_gamma_to_fp16"), val = tensor<fp16, [128]>(BLOBFILE(path = string("@model_path/weights/weight.bin"), offset = uint64(5982208)))];
            tensor<fp16, [1, 1500, 128]> input_247_cast_fp16 = mul(x = var_1473_cast_fp16, y = model_transformer_blocks_layers_4_1_net_0_gamma_to_fp16)[name = string("input_247_cast_fp16")];
            tensor<fp16, [512, 128]> model_transformer_blocks_layers_4_1_net_1_weight_to_fp16 = const()[name = string("model_transformer_blocks_layers_4_1_net_1_weight_to_fp16"), val = tensor<fp16, [512, 128]>(BLOBFILE(path = string("@model_path/weights/weight.bin"), offset = uint64(5982528)))];
            tensor<fp16, [512]> model_transformer_blocks_layers_4_1_net_1_bias_to_fp16 = const()[name = string("model_transformer_blocks_layers_4_1_net_1_bias_to_fp16"), val = tensor<fp16, [512]>(BLOBFILE(path = string("@model_path/weights/weight.bin"), offset = uint64(6113664)))];
            tensor<fp16, [1, 1500, 512]> linear_54_cast_fp16 = linear(bias = model_transformer_blocks_layers_4_1_net_1_bias_to_fp16, weight = model_transformer_blocks_layers_4_1_net_1_weight_to_fp16, x = input_247_cast_fp16)[name = string("linear_54_cast_fp16")];
            string input_251_mode_0 = const()[name = string("input_251_mode_0"), val = string("EXACT")];
            tensor<fp16, [1, 1500, 512]> input_251_cast_fp16 = gelu(mode = input_251_mode_0, x = linear_54_cast_fp16)[name = string("input_251_cast_fp16")];
            tensor<fp16, [128, 512]> model_transformer_blocks_layers_4_1_net_4_weight_to_fp16 = const()[name = string("model_transformer_blocks_layers_4_1_net_4_weight_to_fp16"), val = tensor<fp16, [128, 512]>(BLOBFILE(path = string("@model_path/weights/weight.bin"), offset = uint64(6114752)))];
            tensor<fp16, [128]> model_transformer_blocks_layers_4_1_net_4_bias_to_fp16 = const()[name = string("model_transformer_blocks_layers_4_1_net_4_bias_to_fp16"), val = tensor<fp16, [128]>(BLOBFILE(path = string("@model_path/weights/weight.bin"), offset = uint64(6245888)))];
            tensor<fp16, [1, 1500, 128]> linear_55_cast_fp16 = linear(bias = model_transformer_blocks_layers_4_1_net_4_bias_to_fp16, weight = model_transformer_blocks_layers_4_1_net_4_weight_to_fp16, x = input_251_cast_fp16)[name = string("linear_55_cast_fp16")];
            tensor<fp16, [1, 1500, 128]> input_257_cast_fp16 = add(x = linear_55_cast_fp16, y = input_245_cast_fp16)[name = string("input_257_cast_fp16")];
            tensor<int32, [1]> var_1490 = const()[name = string("op_1490"), val = tensor<int32, [1]>([-1])];
            tensor<fp16, [1, 1500, 1]> var_1491_cast_fp16 = reduce_l2_norm(axes = var_1490, keep_dims = var_55, x = input_257_cast_fp16)[name = string("op_1491_cast_fp16")];
            tensor<fp16, [1, 1500, 1]> var_1492_cast_fp16 = maximum(x = var_1491_cast_fp16, y = var_59_to_fp16)[name = string("op_1492_cast_fp16")];
            tensor<int32, [3]> denom_45_reps_0 = const()[name = string("denom_45_reps_0"), val = tensor<int32, [3]>([1, 1, 128])];
            tensor<fp16, [1, 1500, 128]> denom_45_cast_fp16 = tile(reps = denom_45_reps_0, x = var_1492_cast_fp16)[name = string("denom_45_cast_fp16")];
            tensor<fp16, [1, 1500, 128]> var_1494_cast_fp16 = real_div(x = input_257_cast_fp16, y = denom_45_cast_fp16)[name = string("op_1494_cast_fp16")];
            fp16 var_1495_to_fp16 = const()[name = string("op_1495_to_fp16"), val = fp16(0x1.6ap+3)];
            tensor<fp16, [1, 1500, 128]> var_1496_cast_fp16 = mul(x = var_1494_cast_fp16, y = var_1495_to_fp16)[name = string("op_1496_cast_fp16")];
            tensor<fp16, [128]> model_transformer_blocks_layers_5_0_norm_gamma_to_fp16 = const()[name = string("model_transformer_blocks_layers_5_0_norm_gamma_to_fp16"), val = tensor<fp16, [128]>(BLOBFILE(path = string("@model_path/weights/weight.bin"), offset = uint64(6246208)))];
            tensor<fp16, [1, 1500, 128]> input_259_cast_fp16 = mul(x = var_1496_cast_fp16, y = model_transformer_blocks_layers_5_0_norm_gamma_to_fp16)[name = string("input_259_cast_fp16")];
            tensor<fp16, [384, 128]> model_transformer_blocks_layers_5_0_to_qkv_weight_to_fp16 = const()[name = string("model_transformer_blocks_layers_5_0_to_qkv_weight_to_fp16"), val = tensor<fp16, [384, 128]>(BLOBFILE(path = string("@model_path/weights/weight.bin"), offset = uint64(6246528)))];
            tensor<fp16, [1, 1500, 384]> linear_56_cast_fp16 = linear(bias = linear_20_bias_0_to_fp16, weight = model_transformer_blocks_layers_5_0_to_qkv_weight_to_fp16, x = input_259_cast_fp16)[name = string("linear_56_cast_fp16")];
            tensor<int32, [5]> concat_123 = const()[name = string("concat_123"), val = tensor<int32, [5]>([1, 1500, 3, 4, -1])];
            tensor<fp16, [1, 1500, 3, 4, 32]> var_1501_cast_fp16 = reshape(shape = concat_123, x = linear_56_cast_fp16)[name = string("op_1501_cast_fp16")];
            tensor<int32, [5]> var_1502 = const()[name = string("op_1502"), val = tensor<int32, [5]>([2, 0, 3, 1, 4])];
            tensor<int32, [5]> t_45_begin_0 = const()[name = string("t_45_begin_0"), val = tensor<int32, [5]>([0, 0, 0, 0, 0])];
            tensor<int32, [5]> t_45_end_0 = const()[name = string("t_45_end_0"), val = tensor<int32, [5]>([1, 1, 4, 1500, 32])];
            tensor<bool, [5]> t_45_end_mask_0 = const()[name = string("t_45_end_mask_0"), val = tensor<bool, [5]>([false, true, true, true, true])];
            tensor<bool, [5]> t_45_squeeze_mask_0 = const()[name = string("t_45_squeeze_mask_0"), val = tensor<bool, [5]>([true, false, false, false, false])];
            tensor<fp16, [3, 1, 4, 1500, 32]> qkv_cast_fp16 = transpose(perm = var_1502, x = var_1501_cast_fp16)[name = string("transpose_51")];
            tensor<fp16, [1, 4, 1500, 32]> t_45_cast_fp16 = slice_by_index(begin = t_45_begin_0, end = t_45_end_0, end_mask = t_45_end_mask_0, squeeze_mask = t_45_squeeze_mask_0, x = qkv_cast_fp16)[name = string("t_45_cast_fp16")];
            tensor<int32, [5]> t_begin_0 = const()[name = string("t_begin_0"), val = tensor<int32, [5]>([1, 0, 0, 0, 0])];
            tensor<int32, [5]> t_end_0 = const()[name = string("t_end_0"), val = tensor<int32, [5]>([2, 1, 4, 1500, 32])];
            tensor<bool, [5]> t_end_mask_0 = const()[name = string("t_end_mask_0"), val = tensor<bool, [5]>([false, true, true, true, true])];
            tensor<bool, [5]> t_squeeze_mask_0 = const()[name = string("t_squeeze_mask_0"), val = tensor<bool, [5]>([true, false, false, false, false])];
            tensor<fp16, [1, 4, 1500, 32]> t_cast_fp16 = slice_by_index(begin = t_begin_0, end = t_end_0, end_mask = t_end_mask_0, squeeze_mask = t_squeeze_mask_0, x = qkv_cast_fp16)[name = string("t_cast_fp16")];
            tensor<int32, [5]> v_begin_0 = const()[name = string("v_begin_0"), val = tensor<int32, [5]>([2, 0, 0, 0, 0])];
            tensor<int32, [5]> v_end_0 = const()[name = string("v_end_0"), val = tensor<int32, [5]>([3, 1, 4, 1500, 32])];
            tensor<bool, [5]> v_end_mask_0 = const()[name = string("v_end_mask_0"), val = tensor<bool, [5]>([false, true, true, true, true])];
            tensor<bool, [5]> v_squeeze_mask_0 = const()[name = string("v_squeeze_mask_0"), val = tensor<bool, [5]>([true, false, false, false, false])];
            tensor<fp16, [1, 4, 1500, 32]> v_cast_fp16 = slice_by_index(begin = v_begin_0, end = v_end_0, end_mask = v_end_mask_0, squeeze_mask = v_squeeze_mask_0, x = qkv_cast_fp16)[name = string("v_cast_fp16")];
            tensor<fp16, [1, 4, 1500, 32]> var_1520_cast_fp16 = mul(x = t_45_cast_fp16, y = var_278_to_fp16)[name = string("op_1520_cast_fp16")];
            tensor<int32, [5]> concat_126 = const()[name = string("concat_126"), val = tensor<int32, [5]>([1, 4, 1500, -1, 2])];
            tensor<fp16, [1, 4, 1500, 16, 2]> x_57_cast_fp16 = reshape(shape = concat_126, x = t_45_cast_fp16)[name = string("x_57_cast_fp16")];
            tensor<int32, [5]> x1_45_begin_0 = const()[name = string("x1_45_begin_0"), val = tensor<int32, [5]>([0, 0, 0, 0, 0])];
            tensor<int32, [5]> x1_45_end_0 = const()[name = string("x1_45_end_0"), val = tensor<int32, [5]>([1, 4, 1500, 16, 1])];
            tensor<bool, [5]> x1_45_end_mask_0 = const()[name = string("x1_45_end_mask_0"), val = tensor<bool, [5]>([true, true, true, true, false])];
            tensor<bool, [5]> x1_45_squeeze_mask_0 = const()[name = string("x1_45_squeeze_mask_0"), val = tensor<bool, [5]>([false, false, false, false, true])];
            tensor<fp16, [1, 4, 1500, 16]> x1_45_cast_fp16 = slice_by_index(begin = x1_45_begin_0, end = x1_45_end_0, end_mask = x1_45_end_mask_0, squeeze_mask = x1_45_squeeze_mask_0, x = x_57_cast_fp16)[name = string("x1_45_cast_fp16")];
            tensor<int32, [5]> x2_45_begin_0 = const()[name = string("x2_45_begin_0"), val = tensor<int32, [5]>([0, 0, 0, 0, 1])];
            tensor<int32, [5]> x2_45_end_0 = const()[name = string("x2_45_end_0"), val = tensor<int32, [5]>([1, 4, 1500, 16, 2])];
            tensor<bool, [5]> x2_45_end_mask_0 = const()[name = string("x2_45_end_mask_0"), val = tensor<bool, [5]>([true, true, true, true, false])];
            tensor<bool, [5]> x2_45_squeeze_mask_0 = const()[name = string("x2_45_squeeze_mask_0"), val = tensor<bool, [5]>([false, false, false, false, true])];
            tensor<fp16, [1, 4, 1500, 16]> x2_45_cast_fp16 = slice_by_index(begin = x2_45_begin_0, end = x2_45_end_0, end_mask = x2_45_end_mask_0, squeeze_mask = x2_45_squeeze_mask_0, x = x_57_cast_fp16)[name = string("x2_45_cast_fp16")];
            fp16 const_99_promoted_to_fp16 = const()[name = string("const_99_promoted_to_fp16"), val = fp16(-0x1p+0)];
            tensor<fp16, [1, 4, 1500, 16]> var_1525_cast_fp16 = mul(x = x2_45_cast_fp16, y = const_99_promoted_to_fp16)[name = string("op_1525_cast_fp16")];
            int32 var_1527_axis_0 = const()[name = string("op_1527_axis_0"), val = int32(-1)];
            tensor<fp16, [1, 4, 1500, 16, 2]> var_1527_cast_fp16 = stack(axis = var_1527_axis_0, values = (var_1525_cast_fp16, x1_45_cast_fp16))[name = string("op_1527_cast_fp16")];
            tensor<int32, [4]> concat_127 = const()[name = string("concat_127"), val = tensor<int32, [4]>([1, 4, 1500, 32])];
            tensor<fp16, [1, 4, 1500, 32]> var_1528_cast_fp16 = reshape(shape = concat_127, x = var_1527_cast_fp16)[name = string("op_1528_cast_fp16")];
            tensor<fp16, [1, 4, 1500, 32]> var_1530_cast_fp16 = mul(x = var_1528_cast_fp16, y = var_288_to_fp16)[name = string("op_1530_cast_fp16")];
            tensor<fp16, [1, 4, 1500, 32]> q_cast_fp16 = add(x = var_1520_cast_fp16, y = var_1530_cast_fp16)[name = string("q_cast_fp16")];
            tensor<fp16, [1, 4, 1500, 32]> var_1545_cast_fp16 = mul(x = t_cast_fp16, y = var_278_to_fp16)[name = string("op_1545_cast_fp16")];
            tensor<int32, [5]> concat_130 = const()[name = string("concat_130"), val = tensor<int32, [5]>([1, 4, 1500, -1, 2])];
            tensor<fp16, [1, 4, 1500, 16, 2]> x_cast_fp16 = reshape(shape = concat_130, x = t_cast_fp16)[name = string("x_cast_fp16")];
            tensor<int32, [5]> x1_begin_0 = const()[name = string("x1_begin_0"), val = tensor<int32, [5]>([0, 0, 0, 0, 0])];
            tensor<int32, [5]> x1_end_0 = const()[name = string("x1_end_0"), val = tensor<int32, [5]>([1, 4, 1500, 16, 1])];
            tensor<bool, [5]> x1_end_mask_0 = const()[name = string("x1_end_mask_0"), val = tensor<bool, [5]>([true, true, true, true, false])];
            tensor<bool, [5]> x1_squeeze_mask_0 = const()[name = string("x1_squeeze_mask_0"), val = tensor<bool, [5]>([false, false, false, false, true])];
            tensor<fp16, [1, 4, 1500, 16]> x1_cast_fp16 = slice_by_index(begin = x1_begin_0, end = x1_end_0, end_mask = x1_end_mask_0, squeeze_mask = x1_squeeze_mask_0, x = x_cast_fp16)[name = string("x1_cast_fp16")];
            tensor<int32, [5]> x2_begin_0 = const()[name = string("x2_begin_0"), val = tensor<int32, [5]>([0, 0, 0, 0, 1])];
            tensor<int32, [5]> x2_end_0 = const()[name = string("x2_end_0"), val = tensor<int32, [5]>([1, 4, 1500, 16, 2])];
            tensor<bool, [5]> x2_end_mask_0 = const()[name = string("x2_end_mask_0"), val = tensor<bool, [5]>([true, true, true, true, false])];
            tensor<bool, [5]> x2_squeeze_mask_0 = const()[name = string("x2_squeeze_mask_0"), val = tensor<bool, [5]>([false, false, false, false, true])];
            tensor<fp16, [1, 4, 1500, 16]> x2_cast_fp16 = slice_by_index(begin = x2_begin_0, end = x2_end_0, end_mask = x2_end_mask_0, squeeze_mask = x2_squeeze_mask_0, x = x_cast_fp16)[name = string("x2_cast_fp16")];
            fp16 const_103_promoted_to_fp16 = const()[name = string("const_103_promoted_to_fp16"), val = fp16(-0x1p+0)];
            tensor<fp16, [1, 4, 1500, 16]> var_1550_cast_fp16 = mul(x = x2_cast_fp16, y = const_103_promoted_to_fp16)[name = string("op_1550_cast_fp16")];
            int32 var_1552_axis_0 = const()[name = string("op_1552_axis_0"), val = int32(-1)];
            tensor<fp16, [1, 4, 1500, 16, 2]> var_1552_cast_fp16 = stack(axis = var_1552_axis_0, values = (var_1550_cast_fp16, x1_cast_fp16))[name = string("op_1552_cast_fp16")];
            tensor<int32, [4]> concat_131 = const()[name = string("concat_131"), val = tensor<int32, [4]>([1, 4, 1500, 32])];
            tensor<fp16, [1, 4, 1500, 32]> var_1553_cast_fp16 = reshape(shape = concat_131, x = var_1552_cast_fp16)[name = string("op_1553_cast_fp16")];
            tensor<fp16, [1, 4, 1500, 32]> var_1555_cast_fp16 = mul(x = var_1553_cast_fp16, y = var_288_to_fp16)[name = string("op_1555_cast_fp16")];
            tensor<fp16, [1, 4, 1500, 32]> k_cast_fp16 = add(x = var_1545_cast_fp16, y = var_1555_cast_fp16)[name = string("k_cast_fp16")];
            tensor<fp16, [1, 4, 1500, 32]> out_45_cast_fp16 = scaled_dot_product_attention(key = k_cast_fp16, query = q_cast_fp16, value = v_cast_fp16)[name = string("out_45_cast_fp16")];
            tensor<fp16, [4, 128]> model_transformer_blocks_layers_5_0_to_gates_weight_to_fp16 = const()[name = string("model_transformer_blocks_layers_5_0_to_gates_weight_to_fp16"), val = tensor<fp16, [4, 128]>(BLOBFILE(path = string("@model_path/weights/weight.bin"), offset = uint64(6344896)))];
            tensor<fp16, [4]> model_transformer_blocks_layers_5_0_to_gates_bias_to_fp16 = const()[name = string("model_transformer_blocks_layers_5_0_to_gates_bias_to_fp16"), val = tensor<fp16, [4]>([0x1.738p-7, -0x1.364p-6, 0x1.4f8p-6, 0x1.bacp-8])];
            tensor<fp16, [1, 1500, 4]> linear_57_cast_fp16 = linear(bias = model_transformer_blocks_layers_5_0_to_gates_bias_to_fp16, weight = model_transformer_blocks_layers_5_0_to_gates_weight_to_fp16, x = input_259_cast_fp16)[name = string("linear_57_cast_fp16")];
            tensor<int32, [3]> var_1561 = const()[name = string("op_1561"), val = tensor<int32, [3]>([0, 2, 1])];
            tensor<int32, [1]> gates_axes_0 = const()[name = string("gates_axes_0"), val = tensor<int32, [1]>([-1])];
            tensor<fp16, [1, 4, 1500]> var_1562_cast_fp16 = transpose(perm = var_1561, x = linear_57_cast_fp16)[name = string("transpose_50")];
            tensor<fp16, [1, 4, 1500, 1]> gates_cast_fp16 = expand_dims(axes = gates_axes_0, x = var_1562_cast_fp16)[name = string("gates_cast_fp16")];
            tensor<fp16, [1, 4, 1500, 1]> var_1564_cast_fp16 = sigmoid(x = gates_cast_fp16)[name = string("op_1564_cast_fp16")];
            tensor<fp16, [1, 4, 1500, 32]> out_cast_fp16 = mul(x = out_45_cast_fp16, y = var_1564_cast_fp16)[name = string("out_cast_fp16")];
            tensor<int32, [4]> var_1566 = const()[name = string("op_1566"), val = tensor<int32, [4]>([0, 2, 1, 3])];
            tensor<int32, [3]> concat_132 = const()[name = string("concat_132"), val = tensor<int32, [3]>([1, 1500, 128])];
            tensor<fp16, [1, 1500, 4, 32]> var_1567_cast_fp16 = transpose(perm = var_1566, x = out_cast_fp16)[name = string("transpose_49")];
            tensor<fp16, [1, 1500, 128]> input_261_cast_fp16 = reshape(shape = concat_132, x = var_1567_cast_fp16)[name = string("input_261_cast_fp16")];
            tensor<fp16, [128, 128]> model_transformer_blocks_layers_5_0_to_out_0_weight_to_fp16 = const()[name = string("model_transformer_blocks_layers_5_0_to_out_0_weight_to_fp16"), val = tensor<fp16, [128, 128]>(BLOBFILE(path = string("@model_path/weights/weight.bin"), offset = uint64(6345984)))];
            tensor<fp16, [1, 1500, 128]> linear_58_cast_fp16 = linear(bias = var_40_bias_0_to_fp16, weight = model_transformer_blocks_layers_5_0_to_out_0_weight_to_fp16, x = input_261_cast_fp16)[name = string("linear_58_cast_fp16")];
            tensor<fp16, [1, 1500, 128]> input_265_cast_fp16 = add(x = linear_58_cast_fp16, y = input_257_cast_fp16)[name = string("input_265_cast_fp16")];
            tensor<int32, [1]> var_1579 = const()[name = string("op_1579"), val = tensor<int32, [1]>([-1])];
            tensor<fp16, [1, 1500, 1]> var_1580_cast_fp16 = reduce_l2_norm(axes = var_1579, keep_dims = var_55, x = input_265_cast_fp16)[name = string("op_1580_cast_fp16")];
            tensor<fp16, [1, 1500, 1]> var_1581_cast_fp16 = maximum(x = var_1580_cast_fp16, y = var_59_to_fp16)[name = string("op_1581_cast_fp16")];
            tensor<int32, [3]> denom_47_reps_0 = const()[name = string("denom_47_reps_0"), val = tensor<int32, [3]>([1, 1, 128])];
            tensor<fp16, [1, 1500, 128]> denom_47_cast_fp16 = tile(reps = denom_47_reps_0, x = var_1581_cast_fp16)[name = string("denom_47_cast_fp16")];
            tensor<fp16, [1, 1500, 128]> var_1583_cast_fp16 = real_div(x = input_265_cast_fp16, y = denom_47_cast_fp16)[name = string("op_1583_cast_fp16")];
            fp16 var_1584_to_fp16 = const()[name = string("op_1584_to_fp16"), val = fp16(0x1.6ap+3)];
            tensor<fp16, [1, 1500, 128]> var_1585_cast_fp16 = mul(x = var_1583_cast_fp16, y = var_1584_to_fp16)[name = string("op_1585_cast_fp16")];
            tensor<fp16, [128]> model_transformer_blocks_layers_5_1_net_0_gamma_to_fp16 = const()[name = string("model_transformer_blocks_layers_5_1_net_0_gamma_to_fp16"), val = tensor<fp16, [128]>(BLOBFILE(path = string("@model_path/weights/weight.bin"), offset = uint64(6378816)))];
            tensor<fp16, [1, 1500, 128]> input_267_cast_fp16 = mul(x = var_1585_cast_fp16, y = model_transformer_blocks_layers_5_1_net_0_gamma_to_fp16)[name = string("input_267_cast_fp16")];
            tensor<fp16, [512, 128]> model_transformer_blocks_layers_5_1_net_1_weight_to_fp16 = const()[name = string("model_transformer_blocks_layers_5_1_net_1_weight_to_fp16"), val = tensor<fp16, [512, 128]>(BLOBFILE(path = string("@model_path/weights/weight.bin"), offset = uint64(6379136)))];
            tensor<fp16, [512]> model_transformer_blocks_layers_5_1_net_1_bias_to_fp16 = const()[name = string("model_transformer_blocks_layers_5_1_net_1_bias_to_fp16"), val = tensor<fp16, [512]>(BLOBFILE(path = string("@model_path/weights/weight.bin"), offset = uint64(6510272)))];
            tensor<fp16, [1, 1500, 512]> linear_59_cast_fp16 = linear(bias = model_transformer_blocks_layers_5_1_net_1_bias_to_fp16, weight = model_transformer_blocks_layers_5_1_net_1_weight_to_fp16, x = input_267_cast_fp16)[name = string("linear_59_cast_fp16")];
            string input_271_mode_0 = const()[name = string("input_271_mode_0"), val = string("EXACT")];
            tensor<fp16, [1, 1500, 512]> input_271_cast_fp16 = gelu(mode = input_271_mode_0, x = linear_59_cast_fp16)[name = string("input_271_cast_fp16")];
            tensor<fp16, [128, 512]> model_transformer_blocks_layers_5_1_net_4_weight_to_fp16 = const()[name = string("model_transformer_blocks_layers_5_1_net_4_weight_to_fp16"), val = tensor<fp16, [128, 512]>(BLOBFILE(path = string("@model_path/weights/weight.bin"), offset = uint64(6511360)))];
            tensor<fp16, [128]> model_transformer_blocks_layers_5_1_net_4_bias_to_fp16 = const()[name = string("model_transformer_blocks_layers_5_1_net_4_bias_to_fp16"), val = tensor<fp16, [128]>(BLOBFILE(path = string("@model_path/weights/weight.bin"), offset = uint64(6642496)))];
            tensor<fp16, [1, 1500, 128]> linear_60_cast_fp16 = linear(bias = model_transformer_blocks_layers_5_1_net_4_bias_to_fp16, weight = model_transformer_blocks_layers_5_1_net_4_weight_to_fp16, x = input_271_cast_fp16)[name = string("linear_60_cast_fp16")];
            tensor<fp16, [1, 1500, 128]> input_277_cast_fp16 = add(x = linear_60_cast_fp16, y = input_265_cast_fp16)[name = string("input_277_cast_fp16")];
            tensor<int32, [1]> var_1598 = const()[name = string("op_1598"), val = tensor<int32, [1]>([-1])];
            tensor<fp16, [1, 1500, 1]> var_1599_cast_fp16 = reduce_l2_norm(axes = var_1598, keep_dims = var_55, x = input_277_cast_fp16)[name = string("op_1599_cast_fp16")];
            tensor<fp16, [1, 1500, 1]> var_1600_cast_fp16 = maximum(x = var_1599_cast_fp16, y = var_59_to_fp16)[name = string("op_1600_cast_fp16")];
            tensor<int32, [3]> denom_reps_0 = const()[name = string("denom_reps_0"), val = tensor<int32, [3]>([1, 1, 128])];
            tensor<fp16, [1, 1500, 128]> denom_cast_fp16 = tile(reps = denom_reps_0, x = var_1600_cast_fp16)[name = string("denom_cast_fp16")];
            tensor<fp16, [1, 1500, 128]> var_1602_cast_fp16 = real_div(x = input_277_cast_fp16, y = denom_cast_fp16)[name = string("op_1602_cast_fp16")];
            fp16 var_1603_to_fp16 = const()[name = string("op_1603_to_fp16"), val = fp16(0x1.6ap+3)];
            tensor<fp16, [1, 1500, 128]> var_1604_cast_fp16 = mul(x = var_1602_cast_fp16, y = var_1603_to_fp16)[name = string("op_1604_cast_fp16")];
            tensor<fp16, [128]> model_transformer_blocks_norm_gamma_to_fp16 = const()[name = string("model_transformer_blocks_norm_gamma_to_fp16"), val = tensor<fp16, [128]>(BLOBFILE(path = string("@model_path/weights/weight.bin"), offset = uint64(6642816)))];
            tensor<fp16, [1, 1500, 128]> input_cast_fp16 = mul(x = var_1604_cast_fp16, y = model_transformer_blocks_norm_gamma_to_fp16)[name = string("input_cast_fp16")];
            tensor<fp16, [2, 128]> model_task_heads_beat_downbeat_lin_weight_to_fp16 = const()[name = string("model_task_heads_beat_downbeat_lin_weight_to_fp16"), val = tensor<fp16, [2, 128]>(BLOBFILE(path = string("@model_path/weights/weight.bin"), offset = uint64(6643136)))];
            tensor<fp16, [2]> model_task_heads_beat_downbeat_lin_bias_to_fp16 = const()[name = string("model_task_heads_beat_downbeat_lin_bias_to_fp16"), val = tensor<fp16, [2]>([0x1.3dp-5, -0x1.7c8p-4])];
            tensor<fp16, [1, 1500, 2]> linear_61_cast_fp16 = linear(bias = model_task_heads_beat_downbeat_lin_bias_to_fp16, weight = model_task_heads_beat_downbeat_lin_weight_to_fp16, x = input_cast_fp16)[name = string("linear_61_cast_fp16")];
            tensor<int32, [3]> beat_begin_0 = const()[name = string("beat_begin_0"), val = tensor<int32, [3]>([0, 0, 0])];
            tensor<int32, [3]> beat_end_0 = const()[name = string("beat_end_0"), val = tensor<int32, [3]>([1, 1500, 1])];
            tensor<bool, [3]> beat_end_mask_0 = const()[name = string("beat_end_mask_0"), val = tensor<bool, [3]>([true, true, false])];
            tensor<bool, [3]> beat_squeeze_mask_0 = const()[name = string("beat_squeeze_mask_0"), val = tensor<bool, [3]>([false, false, true])];
            tensor<fp16, [1, 1500]> beat_cast_fp16 = slice_by_index(begin = beat_begin_0, end = beat_end_0, end_mask = beat_end_mask_0, squeeze_mask = beat_squeeze_mask_0, x = linear_61_cast_fp16)[name = string("beat_cast_fp16")];
            tensor<int32, [3]> downbeat_begin_0 = const()[name = string("downbeat_begin_0"), val = tensor<int32, [3]>([0, 0, 1])];
            tensor<int32, [3]> downbeat_end_0 = const()[name = string("downbeat_end_0"), val = tensor<int32, [3]>([1, 1500, 2])];
            tensor<bool, [3]> downbeat_end_mask_0 = const()[name = string("downbeat_end_mask_0"), val = tensor<bool, [3]>([true, true, false])];
            tensor<bool, [3]> downbeat_squeeze_mask_0 = const()[name = string("downbeat_squeeze_mask_0"), val = tensor<bool, [3]>([false, false, true])];
            tensor<fp16, [1, 1500]> downbeat = slice_by_index(begin = downbeat_begin_0, end = downbeat_end_0, end_mask = downbeat_end_mask_0, squeeze_mask = downbeat_squeeze_mask_0, x = linear_61_cast_fp16)[name = string("downbeat_cast_fp16")];
            tensor<fp16, [1, 1500]> beat = add(x = beat_cast_fp16, y = downbeat)[name = string("op_1612_cast_fp16")];
        } -> (beat, downbeat);
}